…
lk/data/lmdb_mask_augu_full'), ('batch_size', 512), ('datanum', 3923399), ('num_class', 86876), ('lmdb_workers', 4), ('num_workers', 4), ('start_epoch', 1), ('max_epoch', 40), ('lr', 0.1), ('base', 'epoch'), ('step_size', [10, 20, 30]), ('momentum', 0.9), ('gama', 0.1), ('weight_decay', 0.0005), ('rank', -1), ('dist_url', 'env://'), ('world_size', -1), ('gpu', None), ('dist_backend', 'nccl'), ('distributed', False), ('master_port', 22345), ('multiprocessing_distributed', False), ('SEED', 1337), ('local_rank', -1)]
2021-08-08 23:08:37,715: SimpleResidualBackbone(
  (conv1): ConvPrelu(
    (conv): Conv2d(3, 64, kernel_size=(3, 3), stride=(2, 2), padding=(1, 1), bias=False)
    (prelu): PReLU(num_parameters=64)
  )
  (bam1): BAM(
    (channel_att): ChannelGate(
      (gate_c): Sequential(
        (flatten): Flatten()
        (gate_c_fc_0): Linear(in_features=64, out_features=4, bias=True)
        (gate_c_relu_1): ReLU()
        (gate_c_fc_final): Linear(in_features=4, out_features=64, bias=True)
      )
    )
    (spatial_att): SpatialGate(
      (gate_s): Sequential(
        (gate_s_conv_reduce0): Conv2d(64, 4, kernel_size=(1, 1), stride=(1, 1))
        (gate_s_relu_reduce0): ReLU()
        (gate_s_conv_di_0): Conv2d(4, 4, kernel_size=(3, 3), stride=(1, 1), padding=(4, 4), dilation=(4, 4))
        (gate_s_relu_di_0): ReLU()
        (gate_s_conv_di_1): Conv2d(4, 4, kernel_size=(3, 3), stride=(1, 1), padding=(4, 4), dilation=(4, 4))
        (gate_s_relu_di_1): ReLU()
        (gate_s_conv_final): Conv2d(4, 1, kernel_size=(1, 1), stride=(1, 1))
      )
    )
  )
  (bam2): BAM(
    (channel_att): ChannelGate(
      (gate_c): Sequential(
        (flatten): Flatten()
        (gate_c_fc_0): Linear(in_features=128, out_features=8, bias=True)
        (gate_c_relu_1): ReLU()
        (gate_c_fc_final): Linear(in_features=8, out_features=128, bias=True)
      )
    )
    (spatial_att): SpatialGate(
      (gate_s): Sequential(
        (gate_s_conv_reduce0): Conv2d(128, 8, kernel_size=(1, 1), stride=(1, 1))
        (gate_s_relu_reduce0): ReLU()
        (gate_s_conv_di_0): Conv2d(8, 8, kernel_size=(3, 3), stride=(1, 1), padding=(4, 4), dilation=(4, 4))
        (gate_s_relu_di_0): ReLU()
        (gate_s_conv_di_1): Conv2d(8, 8, kernel_size=(3, 3), stride=(1, 1), padding=(4, 4), dilation=(4, 4))
        (gate_s_relu_di_1): ReLU()
        (gate_s_conv_final): Conv2d(8, 1, kernel_size=(1, 1), stride=(1, 1))
      )
    )
  )
  (bam3): BAM(
    (channel_att): ChannelGate(
      (gate_c): Sequential(
        (flatten): Flatten()
        (gate_c_fc_0): Linear(in_features=256, out_features=16, bias=True)
        (gate_c_relu_1): ReLU()
        (gate_c_fc_final): Linear(in_features=16, out_features=256, bias=True)
      )
    )
    (spatial_att): SpatialGate(
      (gate_s): Sequential(
        (gate_s_conv_reduce0): Conv2d(256, 16, kernel_size=(1, 1), stride=(1, 1))
        (gate_s_relu_reduce0): ReLU()
        (gate_s_conv_di_0): Conv2d(16, 16, kernel_size=(3, 3), stride=(1, 1), padding=(4, 4), dilation=(4, 4))
        (gate_s_relu_di_0): ReLU()
        (gate_s_conv_di_1): Conv2d(16, 16, kernel_size=(3, 3), stride=(1, 1), padding=(4, 4), dilation=(4, 4))
        (gate_s_relu_di_1): ReLU()
        (gate_s_conv_final): Conv2d(16, 1, kernel_size=(1, 1), stride=(1, 1))
      )
    )
  )
  (layer1): Sequential(
    (0): SimpleResidualUnit(
      (conv1): ConvPrelu(
        (conv): Conv2d(64, 64, kernel_size=(3, 3), stride=(1, 1), padding=(1, 1), bias=False)
        (prelu): PReLU(num_parameters=64)
      )
      (conv2): ConvPrelu(
        (conv): Conv2d(64, 64, kernel_size=(3, 3), stride=(1, 1), padding=(1, 1), bias=False)
        (prelu): PReLU(num_parameters=64)
      )
    )
    (1): SimpleResidualUnit(
      (conv1): ConvPrelu(
        (conv): Conv2d(64, 64, kernel_size=(3, 3), stride=(1, 1), padding=(1, 1), bias=False)
        (prelu): PReLU(num_parameters=64)
      )
      (conv2): ConvPrelu(
        (conv): Conv2d(64, 64, kernel_size=(3, 3), stride=(1, 1), padding=(1, 1), bias=False)
        (prelu): PReLU(num_parameters=64)
      )
    )
  )
  (conv2): ConvPrelu(
    (conv): Conv2d(64, 128, kernel_size=(3, 3), stride=(2, 2), padding=(1, 1), bias=False)
    (prelu): PReLU(num_parameters=128)
  )
  (layer2): Sequential(
    (0): SimpleResidualUnit(
      (conv1): ConvPrelu(
        (conv): Conv2d(128, 128, kernel_size=(3, 3), stride=(1, 1), padding=(1, 1), bias=False)
        (prelu): PReLU(num_parameters=128)
      )
      (conv2): ConvPrelu(
        (conv): Conv2d(128, 128, kernel_size=(3, 3), stride=(1, 1), padding=(1, 1), bias=False)
        (prelu): PReLU(num_parameters=128)
      )
    )
    (1): SimpleResidualUnit(
      (conv1): ConvPrelu(
        (conv): Conv2d(128, 128, kernel_size=(3, 3), stride=(1, 1), padding=(1, 1), bias=False)
        (prelu): PReLU(num_parameters=128)
      )
      (conv2): ConvPrelu(
        (conv): Conv2d(128, 128, kernel_size=(3, 3), stride=(1, 1), padding=(1, 1), bias=False)
        (prelu): PReLU(num_parameters=128)
      )
    )
    (2): SimpleResidualUnit(
      (conv1): ConvPrelu(
        (conv): Conv2d(128, 128, kernel_size=(3, 3), stride=(1, 1), padding=(1, 1), bias=False)
        (prelu): PReLU(num_parameters=128)
      )
      (conv2): ConvPrelu(
        (conv): Conv2d(128, 128, kernel_size=(3, 3), stride=(1, 1), padding=(1, 1), bias=False)
        (prelu): PReLU(num_parameters=128)
      )
    )
    (3): SimpleResidualUnit(
      (conv1): ConvPrelu(
        (conv): Conv2d(128, 128, kernel_size=(3, 3), stride=(1, 1), padding=(1, 1), bias=False)
        (prelu): PReLU(num_parameters=128)
      )
      (conv2): ConvPrelu(
        (conv): Conv2d(128, 128, kernel_size=(3, 3), stride=(1, 1), padding=(1, 1), bias=False)
        (prelu): PReLU(num_parameters=128)
      )
    )
  )
  (conv3): ConvPrelu(
    (conv): Conv2d(128, 256, kernel_size=(3, 3), stride=(2, 2), padding=(1, 1), bias=False)
    (prelu): PReLU(num_parameters=256)
  )
  (layer3): Sequential(
    (0): SimpleResidualUnit(
      (conv1): ConvPrelu(
        (conv): Conv2d(256, 256, kernel_size=(3, 3), stride=(1, 1), padding=(1, 1), bias=False)
        (prelu): PReLU(num_parameters=256)
      )
      (conv2): ConvPrelu(
        (conv): Conv2d(256, 256, kernel_size=(3, 3), stride=(1, 1), padding=(1, 1), bias=False)
        (prelu): PReLU(num_parameters=256)
      )
    )
    (1): SimpleResidualUnit(
      (conv1): ConvPrelu(
        (conv): Conv2d(256, 256, kernel_size=(3, 3), stride=(1, 1), padding=(1, 1), bias=False)
        (prelu): PReLU(num_parameters=256)
      )
      (conv2): ConvPrelu(
        (conv): Conv2d(256, 256, kernel_size=(3, 3), stride=(1, 1), padding=(1, 1), bias=False)
        (prelu): PReLU(num_parameters=256)
      )
    )
    (2): SimpleResidualUnit(
      (conv1): ConvPrelu(
        (conv): Conv2d(256, 256, kernel_size=(3, 3), stride=(1, 1), padding=(1, 1), bias=False)
        (prelu): PReLU(num_parameters=256)
      )
      (conv2): ConvPrelu(
        (conv): Conv2d(256, 256, kernel_size=(3, 3), stride=(1, 1), padding=(1, 1), bias=False)
        (prelu): PReLU(num_parameters=256)
      )
    )
    (3): SimpleResidualUnit(
      (conv1): ConvPrelu(
        (conv): Conv2d(256, 256, kernel_size=(3, 3), stride=(1, 1), padding=(1, 1), bias=False)
        (prelu): PReLU(num_parameters=256)
      )
      (conv2): ConvPrelu(
        (conv): Conv2d(256, 256, kernel_size=(3, 3), stride=(1, 1), padding=(1, 1), bias=False)
        (prelu): PReLU(num_parameters=256)
      )
    )
    (4): SimpleResidualUnit(
      (conv1): ConvPrelu(
        (conv): Conv2d(256, 256, kernel_size=(3, 3), stride=(1, 1), padding=(1, 1), bias=False)
        (prelu): PReLU(num_parameters=256)
      )
      (conv2): ConvPrelu(
        (conv): Conv2d(256, 256, kernel_size=(3, 3), stride=(1, 1), padding=(1, 1), bias=False)
        (prelu): PReLU(num_parameters=256)
      )
    )
    (5): SimpleResidualUnit(
      (conv1): ConvPrelu(
        (conv): Conv2d(256, 256, kernel_size=(3, 3), stride=(1, 1), padding=(1, 1), bias=False)
        (prelu): PReLU(num_parameters=256)
      )
      (conv2): ConvPrelu(
        (conv): Conv2d(256, 256, kernel_size=(3, 3), stride=(1, 1), padding=(1, 1), bias=False)
        (prelu): PReLU(num_parameters=256)
      )
    )
    (6): SimpleResidualUnit(
      (conv1): ConvPrelu(
        (conv): Conv2d(256, 256, kernel_size=(3, 3), stride=(1, 1), padding=(1, 1), bias=False)
        (prelu): PReLU(num_parameters=256)
      )
      (conv2): ConvPrelu(
        (conv): Conv2d(256, 256, kernel_size=(3, 3), stride=(1, 1), padding=(1, 1), bias=False)
        (prelu): PReLU(num_parameters=256)
      )
    )
    (7): SimpleResidualUnit(
      (conv1): ConvPrelu(
        (conv): Conv2d(256, 256, kernel_size=(3, 3), stride=(1, 1), padding=(1, 1), bias=False)
        (prelu): PReLU(num_parameters=256)
      )
      (conv2): ConvPrelu(
        (conv): Conv2d(256, 256, kernel_size=(3, 3), stride=(1, 1), padding=(1, 1), bias=False)
        (prelu): PReLU(num_parameters=256)
      )
    )
  )
  (conv4): ConvPrelu(
    (conv): Conv2d(256, 512, kernel_size=(3, 3), stride=(2, 2), padding=(1, 1), bias=False)
    (prelu): PReLU(num_parameters=512)
  )
  (layer4): Sequential(
    (0): SimpleResidualUnit(
      (conv1): ConvPrelu(
        (conv): Conv2d(512, 512, kernel_size=(3, 3), stride=(1, 1), padding=(1, 1), bias=False)
        (prelu): PReLU(num_parameters=512)
      )
      (conv2): ConvPrelu(
        (conv): Conv2d(512, 512, kernel_size=(3, 3), stride=(1, 1), padding=(1, 1), bias=False)
        (prelu): PReLU(num_parameters=512)
      )
    )
    (1): SimpleResidualUnit(
      (conv1): ConvPrelu(
        (conv): Conv2d(512, 512, kernel_size=(3, 3), stride=(1, 1), padding=(1, 1), bias=False)
        (prelu): PReLU(num_parameters=512)
      )
      (conv2): ConvPrelu(
        (conv): Conv2d(512, 512, kernel_size=(3, 3), stride=(1, 1), padding=(1, 1), bias=False)
        (prelu): PReLU(num_parameters=512)
      )
    )
  )
  (fc5): Linear(in_features=25088, out_features=512, bias=True)
)
2021-08-08 23:08:42,499: Use DP
2021-08-08 23:11:02,714: time cost, forward:0.7168203652507127, backward:0.5650102947697495, data cost:0.13091015815734863 
2021-08-08 23:11:02,714: ============================================================
2021-08-08 23:11:02,714: Epoch 1/40 Batch 100/7662 eta: 4 days, 23:09:58.618484	Training Loss 21.8722 (30.8620)	Training Prec@1 0.000 (0.004)	Training Prec@5 0.000 (0.008)	
…
