…
2022-07-21 14:53:28,373: ('log_settings', {'training': {'log_path': './logs/sr_36_fc_bothMix_seperate.log', 'log_pic_path': './logs/pic/sr_36_fc_bothMix_seperate/', 'save_path': 'snapshot/sr_36_fc_bothMix_seperate/', 'log_interval': 100}, 'testing': {'result_path': './result/result.txt'}})
2022-07-21 14:53:28,373: ('other_settings', {'resume': False, 'resume_net_optimizer': None, 'start_epoch': 1, 'max_epoch': 36, 'lr': 0.1, 'base': 'epoch', 'step_size': [10, 20, 30], 'momentum': 0.9, 'gama': 0.1, 'weight_decay': 0.0005})
2022-07-21 14:53:28,373: ('environ_settings', {'rank': -1, 'dist_url': 'env://', 'world_size': 1, 'gpu': 0, 'dist_backend': 'nccl', 'distributed': False, 'master_port': 22345, 'multiprocessing_distributed': False, 'SEED': 1337})
2022-07-21 14:53:28,373: ('local_rank', 0)
2022-07-21 14:53:28,969: SimpleResidualBackbone(
  (conv1): ConvPrelu(
    (conv): Conv2d(3, 64, kernel_size=(3, 3), stride=(2, 2), padding=(1, 1), bias=False)
    (prelu): PReLU(num_parameters=64)
  )
  (layer1): Sequential(
    (0): SimpleResidualUnit(
      (conv1): ConvPrelu(
        (conv): Conv2d(64, 64, kernel_size=(3, 3), stride=(1, 1), padding=(1, 1), bias=False)
        (prelu): PReLU(num_parameters=64)
      )
      (conv2): ConvPrelu(
        (conv): Conv2d(64, 64, kernel_size=(3, 3), stride=(1, 1), padding=(1, 1), bias=False)
        (prelu): PReLU(num_parameters=64)
      )
    )
    (1): SimpleResidualUnit(
      (conv1): ConvPrelu(
        (conv): Conv2d(64, 64, kernel_size=(3, 3), stride=(1, 1), padding=(1, 1), bias=False)
        (prelu): PReLU(num_parameters=64)
      )
      (conv2): ConvPrelu(
        (conv): Conv2d(64, 64, kernel_size=(3, 3), stride=(1, 1), padding=(1, 1), bias=False)
        (prelu): PReLU(num_parameters=64)
      )
    )
  )
  (conv2): ConvPrelu(
    (conv): Conv2d(64, 128, kernel_size=(3, 3), stride=(2, 2), padding=(1, 1), bias=False)
    (prelu): PReLU(num_parameters=128)
  )
  (layer2): Sequential(
    (0): SimpleResidualUnit(
      (conv1): ConvPrelu(
        (conv): Conv2d(128, 128, kernel_size=(3, 3), stride=(1, 1), padding=(1, 1), bias=False)
        (prelu): PReLU(num_parameters=128)
      )
      (conv2): ConvPrelu(
        (conv): Conv2d(128, 128, kernel_size=(3, 3), stride=(1, 1), padding=(1, 1), bias=False)
        (prelu): PReLU(num_parameters=128)
      )
    )
    (1): SimpleResidualUnit(
      (conv1): ConvPrelu(
        (conv): Conv2d(128, 128, kernel_size=(3, 3), stride=(1, 1), padding=(1, 1), bias=False)
        (prelu): PReLU(num_parameters=128)
      )
      (conv2): ConvPrelu(
        (conv): Conv2d(128, 128, kernel_size=(3, 3), stride=(1, 1), padding=(1, 1), bias=False)
        (prelu): PReLU(num_parameters=128)
      )
    )
    (2): SimpleResidualUnit(
      (conv1): ConvPrelu(
        (conv): Conv2d(128, 128, kernel_size=(3, 3), stride=(1, 1), padding=(1, 1), bias=False)
        (prelu): PReLU(num_parameters=128)
      )
      (conv2): ConvPrelu(
        (conv): Conv2d(128, 128, kernel_size=(3, 3), stride=(1, 1), padding=(1, 1), bias=False)
        (prelu): PReLU(num_parameters=128)
      )
    )
    (3): SimpleResidualUnit(
      (conv1): ConvPrelu(
        (conv): Conv2d(128, 128, kernel_size=(3, 3), stride=(1, 1), padding=(1, 1), bias=False)
        (prelu): PReLU(num_parameters=128)
      )
      (conv2): ConvPrelu(
        (conv): Conv2d(128, 128, kernel_size=(3, 3), stride=(1, 1), padding=(1, 1), bias=False)
        (prelu): PReLU(num_parameters=128)
      )
    )
  )
  (conv3): ConvPrelu(
    (conv): Conv2d(128, 256, kernel_size=(3, 3), stride=(2, 2), padding=(1, 1), bias=False)
    (prelu): PReLU(num_parameters=256)
  )
  (layer3): Sequential(
    (0): SimpleResidualUnit(
      (conv1): ConvPrelu(
        (conv): Conv2d(256, 256, kernel_size=(3, 3), stride=(1, 1), padding=(1, 1), bias=False)
        (prelu): PReLU(num_parameters=256)
      )
      (conv2): ConvPrelu(
        (conv): Conv2d(256, 256, kernel_size=(3, 3), stride=(1, 1), padding=(1, 1), bias=False)
        (prelu): PReLU(num_parameters=256)
      )
    )
    (1): SimpleResidualUnit(
      (conv1): ConvPrelu(
        (conv): Conv2d(256, 256, kernel_size=(3, 3), stride=(1, 1), padding=(1, 1), bias=False)
        (prelu): PReLU(num_parameters=256)
      )
      (conv2): ConvPrelu(
        (conv): Conv2d(256, 256, kernel_size=(3, 3), stride=(1, 1), padding=(1, 1), bias=False)
        (prelu): PReLU(num_parameters=256)
      )
    )
    (2): SimpleResidualUnit(
      (conv1): ConvPrelu(
        (conv): Conv2d(256, 256, kernel_size=(3, 3), stride=(1, 1), padding=(1, 1), bias=False)
        (prelu): PReLU(num_parameters=256)
      )
      (conv2): ConvPrelu(
        (conv): Conv2d(256, 256, kernel_size=(3, 3), stride=(1, 1), padding=(1, 1), bias=False)
        (prelu): PReLU(num_parameters=256)
      )
    )
    (3): SimpleResidualUnit(
      (conv1): ConvPrelu(
        (conv): Conv2d(256, 256, kernel_size=(3, 3), stride=(1, 1), padding=(1, 1), bias=False)
        (prelu): PReLU(num_parameters=256)
      )
      (conv2): ConvPrelu(
        (conv): Conv2d(256, 256, kernel_size=(3, 3), stride=(1, 1), padding=(1, 1), bias=False)
        (prelu): PReLU(num_parameters=256)
      )
    )
    (4): SimpleResidualUnit(
      (conv1): ConvPrelu(
        (conv): Conv2d(256, 256, kernel_size=(3, 3), stride=(1, 1), padding=(1, 1), bias=False)
        (prelu): PReLU(num_parameters=256)
      )
      (conv2): ConvPrelu(
        (conv): Conv2d(256, 256, kernel_size=(3, 3), stride=(1, 1), padding=(1, 1), bias=False)
        (prelu): PReLU(num_parameters=256)
      )
    )
    (5): SimpleResidualUnit(
      (conv1): ConvPrelu(
        (conv): Conv2d(256, 256, kernel_size=(3, 3), stride=(1, 1), padding=(1, 1), bias=False)
        (prelu): PReLU(num_parameters=256)
      )
      (conv2): ConvPrelu(
        (conv): Conv2d(256, 256, kernel_size=(3, 3), stride=(1, 1), padding=(1, 1), bias=False)
        (prelu): PReLU(num_parameters=256)
      )
    )
    (6): SimpleResidualUnit(
      (conv1): ConvPrelu(
        (conv): Conv2d(256, 256, kernel_size=(3, 3), stride=(1, 1), padding=(1, 1), bias=False)
        (prelu): PReLU(num_parameters=256)
      )
      (conv2): ConvPrelu(
        (conv): Conv2d(256, 256, kernel_size=(3, 3), stride=(1, 1), padding=(1, 1), bias=False)
        (prelu): PReLU(num_parameters=256)
      )
    )
    (7): SimpleResidualUnit(
      (conv1): ConvPrelu(
        (conv): Conv2d(256, 256, kernel_size=(3, 3), stride=(1, 1), padding=(1, 1), bias=False)
        (prelu): PReLU(num_parameters=256)
      )
      (conv2): ConvPrelu(
        (conv): Conv2d(256, 256, kernel_size=(3, 3), stride=(1, 1), padding=(1, 1), bias=False)
        (prelu): PReLU(num_parameters=256)
      )
    )
  )
  (conv4): ConvPrelu(
    (conv): Conv2d(256, 512, kernel_size=(3, 3), stride=(2, 2), padding=(1, 1), bias=False)
    (prelu): PReLU(num_parameters=512)
  )
  (layer4): Sequential(
    (0): SimpleResidualUnit(
      (conv1): ConvPrelu(
        (conv): Conv2d(512, 512, kernel_size=(3, 3), stride=(1, 1), padding=(1, 1), bias=False)
        (prelu): PReLU(num_parameters=512)
      )
      (conv2): ConvPrelu(
        (conv): Conv2d(512, 512, kernel_size=(3, 3), stride=(1, 1), padding=(1, 1), bias=False)
        (prelu): PReLU(num_parameters=512)
      )
    )
    (1): SimpleResidualUnit(
      (conv1): ConvPrelu(
        (conv): Conv2d(512, 512, kernel_size=(3, 3), stride=(1, 1), padding=(1, 1), bias=False)
        (prelu): PReLU(num_parameters=512)
      )
      (conv2): ConvPrelu(
        (conv): Conv2d(512, 512, kernel_size=(3, 3), stride=(1, 1), padding=(1, 1), bias=False)
        (prelu): PReLU(num_parameters=512)
      )
    )
  )
  (fc5): Linear(in_features=25088, out_features=256, bias=True)
  (fc5_two): Linear(in_features=25088, out_features=256, bias=True)
)
2022-07-21 14:53:32,638: Use one GPU
2022-07-21 14:53:36,073: CrossEntropyLoss()
2022-07-21 14:53:36,073: LogSoftmax(dim=1)
2022-07-21 14:53:36,073: NLLLoss()
2022-07-21 14:53:36,073: <bound method Trainer.loss_func of <trainner.Trainer object at 0x7f6c0a1e1e10>>
2022-07-21 14:54:54,945: time cost, forward:0.017357903297501382, backward:0.09782524783201892, data cost:0.6766716952275749 
…
