…
data4/lk/data/lmdb_default'), ('batch_size', 512), ('datanum', 3923399), ('num_class', 86876), ('lmdb_workers', 4), ('num_workers', 4), ('start_epoch', 1), ('max_epoch', 26), ('lr', 0.01), ('base', 'epoch'), ('step_size', [10, 20, 30]), ('momentum', 0.9), ('gama', 0.1), ('weight_decay', 0.0005), ('rank', -1), ('dist_url', 'env://'), ('world_size', -1), ('gpu', None), ('dist_backend', 'nccl'), ('distributed', False), ('master_port', 22345), ('multiprocessing_distributed', False), ('SEED', 1337), ('local_rank', -1)]
2022-03-25 09:44:09,269: SimpleResidualBackbone(
  (conv1): ConvPrelu(
    (conv): Conv2d(3, 64, kernel_size=(3, 3), stride=(2, 2), padding=(1, 1), bias=False)
    (prelu): PReLU(num_parameters=64)
  )
  (layer1): Sequential(
    (0): SimpleResidualUnit(
      (conv1): ConvPrelu(
        (conv): Conv2d(64, 64, kernel_size=(3, 3), stride=(1, 1), padding=(1, 1), bias=False)
        (prelu): PReLU(num_parameters=64)
      )
      (conv2): ConvPrelu(
        (conv): Conv2d(64, 64, kernel_size=(3, 3), stride=(1, 1), padding=(1, 1), bias=False)
        (prelu): PReLU(num_parameters=64)
      )
    )
    (1): SimpleResidualUnit(
      (conv1): ConvPrelu(
        (conv): Conv2d(64, 64, kernel_size=(3, 3), stride=(1, 1), padding=(1, 1), bias=False)
        (prelu): PReLU(num_parameters=64)
      )
      (conv2): ConvPrelu(
        (conv): Conv2d(64, 64, kernel_size=(3, 3), stride=(1, 1), padding=(1, 1), bias=False)
        (prelu): PReLU(num_parameters=64)
      )
    )
  )
  (conv2): ConvPrelu(
    (conv): Conv2d(64, 128, kernel_size=(3, 3), stride=(2, 2), padding=(1, 1), bias=False)
    (prelu): PReLU(num_parameters=128)
  )
  (layer2): Sequential(
    (0): SimpleResidualUnit(
      (conv1): ConvPrelu(
        (conv): Conv2d(128, 128, kernel_size=(3, 3), stride=(1, 1), padding=(1, 1), bias=False)
        (prelu): PReLU(num_parameters=128)
      )
      (conv2): ConvPrelu(
        (conv): Conv2d(128, 128, kernel_size=(3, 3), stride=(1, 1), padding=(1, 1), bias=False)
        (prelu): PReLU(num_parameters=128)
      )
    )
    (1): SimpleResidualUnit(
      (conv1): ConvPrelu(
        (conv): Conv2d(128, 128, kernel_size=(3, 3), stride=(1, 1), padding=(1, 1), bias=False)
        (prelu): PReLU(num_parameters=128)
      )
      (conv2): ConvPrelu(
        (conv): Conv2d(128, 128, kernel_size=(3, 3), stride=(1, 1), padding=(1, 1), bias=False)
        (prelu): PReLU(num_parameters=128)
      )
    )
    (2): SimpleResidualUnit(
      (conv1): ConvPrelu(
        (conv): Conv2d(128, 128, kernel_size=(3, 3), stride=(1, 1), padding=(1, 1), bias=False)
        (prelu): PReLU(num_parameters=128)
      )
      (conv2): ConvPrelu(
        (conv): Conv2d(128, 128, kernel_size=(3, 3), stride=(1, 1), padding=(1, 1), bias=False)
        (prelu): PReLU(num_parameters=128)
      )
    )
    (3): SimpleResidualUnit(
      (conv1): ConvPrelu(
        (conv): Conv2d(128, 128, kernel_size=(3, 3), stride=(1, 1), padding=(1, 1), bias=False)
        (prelu): PReLU(num_parameters=128)
      )
      (conv2): ConvPrelu(
        (conv): Conv2d(128, 128, kernel_size=(3, 3), stride=(1, 1), padding=(1, 1), bias=False)
        (prelu): PReLU(num_parameters=128)
      )
    )
  )
  (conv3): ConvPrelu(
    (conv): Conv2d(128, 256, kernel_size=(3, 3), stride=(2, 2), padding=(1, 1), bias=False)
    (prelu): PReLU(num_parameters=256)
  )
  (layer3): Sequential(
    (0): SimpleResidualUnit(
      (conv1): ConvPrelu(
        (conv): Conv2d(256, 256, kernel_size=(3, 3), stride=(1, 1), padding=(1, 1), bias=False)
        (prelu): PReLU(num_parameters=256)
      )
      (conv2): ConvPrelu(
        (conv): Conv2d(256, 256, kernel_size=(3, 3), stride=(1, 1), padding=(1, 1), bias=False)
        (prelu): PReLU(num_parameters=256)
      )
    )
    (1): SimpleResidualUnit(
      (conv1): ConvPrelu(
        (conv): Conv2d(256, 256, kernel_size=(3, 3), stride=(1, 1), padding=(1, 1), bias=False)
        (prelu): PReLU(num_parameters=256)
      )
      (conv2): ConvPrelu(
        (conv): Conv2d(256, 256, kernel_size=(3, 3), stride=(1, 1), padding=(1, 1), bias=False)
        (prelu): PReLU(num_parameters=256)
      )
    )
    (2): SimpleResidualUnit(
      (conv1): ConvPrelu(
        (conv): Conv2d(256, 256, kernel_size=(3, 3), stride=(1, 1), padding=(1, 1), bias=False)
        (prelu): PReLU(num_parameters=256)
      )
      (conv2): ConvPrelu(
        (conv): Conv2d(256, 256, kernel_size=(3, 3), stride=(1, 1), padding=(1, 1), bias=False)
        (prelu): PReLU(num_parameters=256)
      )
    )
    (3): SimpleResidualUnit(
      (conv1): ConvPrelu(
        (conv): Conv2d(256, 256, kernel_size=(3, 3), stride=(1, 1), padding=(1, 1), bias=False)
        (prelu): PReLU(num_parameters=256)
      )
      (conv2): ConvPrelu(
        (conv): Conv2d(256, 256, kernel_size=(3, 3), stride=(1, 1), padding=(1, 1), bias=False)
        (prelu): PReLU(num_parameters=256)
      )
    )
    (4): SimpleResidualUnit(
      (conv1): ConvPrelu(
        (conv): Conv2d(256, 256, kernel_size=(3, 3), stride=(1, 1), padding=(1, 1), bias=False)
        (prelu): PReLU(num_parameters=256)
      )
      (conv2): ConvPrelu(
        (conv): Conv2d(256, 256, kernel_size=(3, 3), stride=(1, 1), padding=(1, 1), bias=False)
        (prelu): PReLU(num_parameters=256)
      )
    )
    (5): SimpleResidualUnit(
      (conv1): ConvPrelu(
        (conv): Conv2d(256, 256, kernel_size=(3, 3), stride=(1, 1), padding=(1, 1), bias=False)
        (prelu): PReLU(num_parameters=256)
      )
      (conv2): ConvPrelu(
        (conv): Conv2d(256, 256, kernel_size=(3, 3), stride=(1, 1), padding=(1, 1), bias=False)
        (prelu): PReLU(num_parameters=256)
      )
    )
    (6): SimpleResidualUnit(
      (conv1): ConvPrelu(
        (conv): Conv2d(256, 256, kernel_size=(3, 3), stride=(1, 1), padding=(1, 1), bias=False)
        (prelu): PReLU(num_parameters=256)
      )
      (conv2): ConvPrelu(
        (conv): Conv2d(256, 256, kernel_size=(3, 3), stride=(1, 1), padding=(1, 1), bias=False)
        (prelu): PReLU(num_parameters=256)
      )
    )
    (7): SimpleResidualUnit(
      (conv1): ConvPrelu(
        (conv): Conv2d(256, 256, kernel_size=(3, 3), stride=(1, 1), padding=(1, 1), bias=False)
        (prelu): PReLU(num_parameters=256)
      )
      (conv2): ConvPrelu(
        (conv): Conv2d(256, 256, kernel_size=(3, 3), stride=(1, 1), padding=(1, 1), bias=False)
        (prelu): PReLU(num_parameters=256)
      )
    )
  )
  (conv4): ConvPrelu(
    (conv): Conv2d(256, 512, kernel_size=(3, 3), stride=(2, 2), padding=(1, 1), bias=False)
    (prelu): PReLU(num_parameters=512)
  )
  (layer4): Sequential(
    (0): SimpleResidualUnit(
      (conv1): ConvPrelu(
        (conv): Conv2d(512, 512, kernel_size=(3, 3), stride=(1, 1), padding=(1, 1), bias=False)
        (prelu): PReLU(num_parameters=512)
      )
      (conv2): ConvPrelu(
        (conv): Conv2d(512, 512, kernel_size=(3, 3), stride=(1, 1), padding=(1, 1), bias=False)
        (prelu): PReLU(num_parameters=512)
      )
    )
    (1): SimpleResidualUnit(
      (conv1): ConvPrelu(
        (conv): Conv2d(512, 512, kernel_size=(3, 3), stride=(1, 1), padding=(1, 1), bias=False)
        (prelu): PReLU(num_parameters=512)
      )
      (conv2): ConvPrelu(
        (conv): Conv2d(512, 512, kernel_size=(3, 3), stride=(1, 1), padding=(1, 1), bias=False)
        (prelu): PReLU(num_parameters=512)
      )
    )
  )
  (fc5): Linear(in_features=25088, out_features=512, bias=True)
)
2022-03-25 09:44:25,472: Use DP
