…
u/data4/lk/data/lmdb_default'), ('batch_size', 512), ('datanum', 3923399), ('num_class', 86876), ('lmdb_workers', 4), ('num_workers', 4), ('start_epoch', 1), ('max_epoch', 31), ('lr', 0.001), ('base', 'epoch'), ('step_size', [10, 20, 30, 40]), ('momentum', 0.9), ('gama', 0.1), ('weight_decay', 0.0005), ('rank', 0), ('dist_url', 'env://'), ('world_size', 2), ('gpu', 0), ('dist_backend', 'nccl'), ('distributed', True), ('master_port', 22000), ('multiprocessing_distributed', False), ('SEED', 1337), ('local_rank', 0)]
2022-03-29 08:10:50,359: SimpleResidualBackbone(
  (conv1): ConvPrelu(
    (conv): Conv2d(3, 64, kernel_size=(3, 3), stride=(2, 2), padding=(1, 1), bias=False)
    (prelu): PReLU(num_parameters=64)
  )
  (layer1): Sequential(
    (0): SimpleResidualUnit(
      (conv1): ConvPrelu(
        (conv): Conv2d(64, 64, kernel_size=(3, 3), stride=(1, 1), padding=(1, 1), bias=False)
        (prelu): PReLU(num_parameters=64)
      )
      (conv2): ConvPrelu(
        (conv): Conv2d(64, 64, kernel_size=(3, 3), stride=(1, 1), padding=(1, 1), bias=False)
        (prelu): PReLU(num_parameters=64)
      )
    )
    (1): SimpleResidualUnit(
      (conv1): ConvPrelu(
        (conv): Conv2d(64, 64, kernel_size=(3, 3), stride=(1, 1), padding=(1, 1), bias=False)
        (prelu): PReLU(num_parameters=64)
      )
      (conv2): ConvPrelu(
        (conv): Conv2d(64, 64, kernel_size=(3, 3), stride=(1, 1), padding=(1, 1), bias=False)
        (prelu): PReLU(num_parameters=64)
      )
    )
  )
  (conv2): ConvPrelu(
    (conv): Conv2d(64, 128, kernel_size=(3, 3), stride=(2, 2), padding=(1, 1), bias=False)
    (prelu): PReLU(num_parameters=128)
  )
  (layer2): Sequential(
    (0): SimpleResidualUnit(
      (conv1): ConvPrelu(
        (conv): Conv2d(128, 128, kernel_size=(3, 3), stride=(1, 1), padding=(1, 1), bias=False)
        (prelu): PReLU(num_parameters=128)
      )
      (conv2): ConvPrelu(
        (conv): Conv2d(128, 128, kernel_size=(3, 3), stride=(1, 1), padding=(1, 1), bias=False)
        (prelu): PReLU(num_parameters=128)
      )
    )
    (1): SimpleResidualUnit(
      (conv1): ConvPrelu(
        (conv): Conv2d(128, 128, kernel_size=(3, 3), stride=(1, 1), padding=(1, 1), bias=False)
        (prelu): PReLU(num_parameters=128)
      )
      (conv2): ConvPrelu(
        (conv): Conv2d(128, 128, kernel_size=(3, 3), stride=(1, 1), padding=(1, 1), bias=False)
        (prelu): PReLU(num_parameters=128)
      )
    )
    (2): SimpleResidualUnit(
      (conv1): ConvPrelu(
        (conv): Conv2d(128, 128, kernel_size=(3, 3), stride=(1, 1), padding=(1, 1), bias=False)
        (prelu): PReLU(num_parameters=128)
      )
      (conv2): ConvPrelu(
        (conv): Conv2d(128, 128, kernel_size=(3, 3), stride=(1, 1), padding=(1, 1), bias=False)
        (prelu): PReLU(num_parameters=128)
      )
    )
    (3): SimpleResidualUnit(
      (conv1): ConvPrelu(
        (conv): Conv2d(128, 128, kernel_size=(3, 3), stride=(1, 1), padding=(1, 1), bias=False)
        (prelu): PReLU(num_parameters=128)
      )
      (conv2): ConvPrelu(
        (conv): Conv2d(128, 128, kernel_size=(3, 3), stride=(1, 1), padding=(1, 1), bias=False)
        (prelu): PReLU(num_parameters=128)
      )
    )
  )
  (conv3): ConvPrelu(
    (conv): Conv2d(128, 256, kernel_size=(3, 3), stride=(2, 2), padding=(1, 1), bias=False)
    (prelu): PReLU(num_parameters=256)
  )
  (layer3): Sequential(
    (0): SimpleResidualUnit(
      (conv1): ConvPrelu(
        (conv): Conv2d(256, 256, kernel_size=(3, 3), stride=(1, 1), padding=(1, 1), bias=False)
        (prelu): PReLU(num_parameters=256)
      )
      (conv2): ConvPrelu(
        (conv): Conv2d(256, 256, kernel_size=(3, 3), stride=(1, 1), padding=(1, 1), bias=False)
        (prelu): PReLU(num_parameters=256)
      )
    )
    (1): SimpleResidualUnit(
      (conv1): ConvPrelu(
        (conv): Conv2d(256, 256, kernel_size=(3, 3), stride=(1, 1), padding=(1, 1), bias=False)
        (prelu): PReLU(num_parameters=256)
      )
      (conv2): ConvPrelu(
        (conv): Conv2d(256, 256, kernel_size=(3, 3), stride=(1, 1), padding=(1, 1), bias=False)
        (prelu): PReLU(num_parameters=256)
      )
    )
    (2): SimpleResidualUnit(
      (conv1): ConvPrelu(
        (conv): Conv2d(256, 256, kernel_size=(3, 3), stride=(1, 1), padding=(1, 1), bias=False)
        (prelu): PReLU(num_parameters=256)
      )
      (conv2): ConvPrelu(
        (conv): Conv2d(256, 256, kernel_size=(3, 3), stride=(1, 1), padding=(1, 1), bias=False)
        (prelu): PReLU(num_parameters=256)
      )
    )
    (3): SimpleResidualUnit(
      (conv1): ConvPrelu(
        (conv): Conv2d(256, 256, kernel_size=(3, 3), stride=(1, 1), padding=(1, 1), bias=False)
        (prelu): PReLU(num_parameters=256)
      )
      (conv2): ConvPrelu(
        (conv): Conv2d(256, 256, kernel_size=(3, 3), stride=(1, 1), padding=(1, 1), bias=False)
        (prelu): PReLU(num_parameters=256)
      )
    )
    (4): SimpleResidualUnit(
      (conv1): ConvPrelu(
        (conv): Conv2d(256, 256, kernel_size=(3, 3), stride=(1, 1), padding=(1, 1), bias=False)
        (prelu): PReLU(num_parameters=256)
      )
      (conv2): ConvPrelu(
        (conv): Conv2d(256, 256, kernel_size=(3, 3), stride=(1, 1), padding=(1, 1), bias=False)
        (prelu): PReLU(num_parameters=256)
      )
    )
    (5): SimpleResidualUnit(
      (conv1): ConvPrelu(
        (conv): Conv2d(256, 256, kernel_size=(3, 3), stride=(1, 1), padding=(1, 1), bias=False)
        (prelu): PReLU(num_parameters=256)
      )
      (conv2): ConvPrelu(
        (conv): Conv2d(256, 256, kernel_size=(3, 3), stride=(1, 1), padding=(1, 1), bias=False)
        (prelu): PReLU(num_parameters=256)
      )
    )
    (6): SimpleResidualUnit(
      (conv1): ConvPrelu(
        (conv): Conv2d(256, 256, kernel_size=(3, 3), stride=(1, 1), padding=(1, 1), bias=False)
        (prelu): PReLU(num_parameters=256)
      )
      (conv2): ConvPrelu(
        (conv): Conv2d(256, 256, kernel_size=(3, 3), stride=(1, 1), padding=(1, 1), bias=False)
        (prelu): PReLU(num_parameters=256)
      )
    )
    (7): SimpleResidualUnit(
      (conv1): ConvPrelu(
        (conv): Conv2d(256, 256, kernel_size=(3, 3), stride=(1, 1), padding=(1, 1), bias=False)
        (prelu): PReLU(num_parameters=256)
      )
      (conv2): ConvPrelu(
        (conv): Conv2d(256, 256, kernel_size=(3, 3), stride=(1, 1), padding=(1, 1), bias=False)
        (prelu): PReLU(num_parameters=256)
      )
    )
  )
  (conv4): ConvPrelu(
    (conv): Conv2d(256, 512, kernel_size=(3, 3), stride=(2, 2), padding=(1, 1), bias=False)
    (prelu): PReLU(num_parameters=512)
  )
  (layer4): Sequential(
    (0): SimpleResidualUnit(
      (conv1): ConvPrelu(
        (conv): Conv2d(512, 512, kernel_size=(3, 3), stride=(1, 1), padding=(1, 1), bias=False)
        (prelu): PReLU(num_parameters=512)
      )
      (conv2): ConvPrelu(
        (conv): Conv2d(512, 512, kernel_size=(3, 3), stride=(1, 1), padding=(1, 1), bias=False)
        (prelu): PReLU(num_parameters=512)
      )
    )
    (1): SimpleResidualUnit(
      (conv1): ConvPrelu(
        (conv): Conv2d(512, 512, kernel_size=(3, 3), stride=(1, 1), padding=(1, 1), bias=False)
        (prelu): PReLU(num_parameters=512)
      )
      (conv2): ConvPrelu(
        (conv): Conv2d(512, 512, kernel_size=(3, 3), stride=(1, 1), padding=(1, 1), bias=False)
        (prelu): PReLU(num_parameters=512)
      )
    )
  )
  (fc5): Linear(in_features=25088, out_features=512, bias=True)
)
2022-03-29 08:10:50,973: data balance
2022-03-29 08:11:25,660: time cost, forward:0.11740163119152339, backward:0.043522355532405355, data cost:0.1850144863128662 
2022-03-29 08:11:25,661: ============================================================
2022-03-29 08:11:25,661: Epoch 1/31 Batch 100/7662 eta: 22:43:47.575792	Training Loss 0.8627 (0.8654)	Training Prec@1 0.000 (0.000)	Training Prec@5 0.000 (0.004)	
…
