…
ugu_full'), ('batch_size', 512), ('datanum', 3923399), ('num_class', 86876), ('lmdb_workers', 4), ('num_workers', 4), ('start_epoch', 1), ('max_epoch', 38), ('lr', 0.1), ('base', 'epoch'), ('step_size', [10, 20, 30, 40, 50, 60]), ('momentum', 0.9), ('gama', 0.1), ('weight_decay', 0.0005), ('rank', -1), ('dist_url', 'env://'), ('world_size', -1), ('gpu', None), ('dist_backend', 'nccl'), ('distributed', False), ('master_port', 32345), ('multiprocessing_distributed', False), ('SEED', 1337), ('local_rank', -1)]
2021-06-07 21:58:22,531: SimpleResidual_split_Backbone(
  (conv1): ConvPrelu(
    (conv): Conv2d(3, 64, kernel_size=(3, 3), stride=(2, 2), padding=(1, 1), bias=False)
    (prelu): PReLU(num_parameters=64)
  )
  (layer1): Sequential(
    (0): SimpleResidualUnit(
      (conv1): ConvPrelu(
        (conv): Conv2d(64, 64, kernel_size=(3, 3), stride=(1, 1), padding=(1, 1), bias=False)
        (prelu): PReLU(num_parameters=64)
      )
      (conv2): ConvPrelu(
        (conv): Conv2d(64, 64, kernel_size=(3, 3), stride=(1, 1), padding=(1, 1), bias=False)
        (prelu): PReLU(num_parameters=64)
      )
    )
    (1): SimpleResidualUnit(
      (conv1): ConvPrelu(
        (conv): Conv2d(64, 64, kernel_size=(3, 3), stride=(1, 1), padding=(1, 1), bias=False)
        (prelu): PReLU(num_parameters=64)
      )
      (conv2): ConvPrelu(
        (conv): Conv2d(64, 64, kernel_size=(3, 3), stride=(1, 1), padding=(1, 1), bias=False)
        (prelu): PReLU(num_parameters=64)
      )
    )
  )
  (conv2): ConvPrelu(
    (conv): Conv2d(64, 128, kernel_size=(3, 3), stride=(2, 2), padding=(1, 1), bias=False)
    (prelu): PReLU(num_parameters=128)
  )
  (layer2): Sequential(
    (0): SimpleResidualUnit(
      (conv1): ConvPrelu(
        (conv): Conv2d(128, 128, kernel_size=(3, 3), stride=(1, 1), padding=(1, 1), bias=False)
        (prelu): PReLU(num_parameters=128)
      )
      (conv2): ConvPrelu(
        (conv): Conv2d(128, 128, kernel_size=(3, 3), stride=(1, 1), padding=(1, 1), bias=False)
        (prelu): PReLU(num_parameters=128)
      )
    )
    (1): SimpleResidualUnit(
      (conv1): ConvPrelu(
        (conv): Conv2d(128, 128, kernel_size=(3, 3), stride=(1, 1), padding=(1, 1), bias=False)
        (prelu): PReLU(num_parameters=128)
      )
      (conv2): ConvPrelu(
        (conv): Conv2d(128, 128, kernel_size=(3, 3), stride=(1, 1), padding=(1, 1), bias=False)
        (prelu): PReLU(num_parameters=128)
      )
    )
    (2): SimpleResidualUnit(
      (conv1): ConvPrelu(
        (conv): Conv2d(128, 128, kernel_size=(3, 3), stride=(1, 1), padding=(1, 1), bias=False)
        (prelu): PReLU(num_parameters=128)
      )
      (conv2): ConvPrelu(
        (conv): Conv2d(128, 128, kernel_size=(3, 3), stride=(1, 1), padding=(1, 1), bias=False)
        (prelu): PReLU(num_parameters=128)
      )
    )
    (3): SimpleResidualUnit(
      (conv1): ConvPrelu(
        (conv): Conv2d(128, 128, kernel_size=(3, 3), stride=(1, 1), padding=(1, 1), bias=False)
        (prelu): PReLU(num_parameters=128)
      )
      (conv2): ConvPrelu(
        (conv): Conv2d(128, 128, kernel_size=(3, 3), stride=(1, 1), padding=(1, 1), bias=False)
        (prelu): PReLU(num_parameters=128)
      )
    )
  )
  (conv3_up): ConvPrelu(
    (conv): Conv2d(128, 256, kernel_size=(3, 3), stride=(2, 2), padding=(1, 1), bias=False)
    (prelu): PReLU(num_parameters=256)
  )
  (layer3_up): Sequential(
    (0): SimpleResidualUnit(
      (conv1): ConvPrelu(
        (conv): Conv2d(256, 256, kernel_size=(3, 3), stride=(1, 1), padding=(1, 1), bias=False)
        (prelu): PReLU(num_parameters=256)
      )
      (conv2): ConvPrelu(
        (conv): Conv2d(256, 256, kernel_size=(3, 3), stride=(1, 1), padding=(1, 1), bias=False)
        (prelu): PReLU(num_parameters=256)
      )
    )
    (1): SimpleResidualUnit(
      (conv1): ConvPrelu(
        (conv): Conv2d(256, 256, kernel_size=(3, 3), stride=(1, 1), padding=(1, 1), bias=False)
        (prelu): PReLU(num_parameters=256)
      )
      (conv2): ConvPrelu(
        (conv): Conv2d(256, 256, kernel_size=(3, 3), stride=(1, 1), padding=(1, 1), bias=False)
        (prelu): PReLU(num_parameters=256)
      )
    )
    (2): SimpleResidualUnit(
      (conv1): ConvPrelu(
        (conv): Conv2d(256, 256, kernel_size=(3, 3), stride=(1, 1), padding=(1, 1), bias=False)
        (prelu): PReLU(num_parameters=256)
      )
      (conv2): ConvPrelu(
        (conv): Conv2d(256, 256, kernel_size=(3, 3), stride=(1, 1), padding=(1, 1), bias=False)
        (prelu): PReLU(num_parameters=256)
      )
    )
    (3): SimpleResidualUnit(
      (conv1): ConvPrelu(
        (conv): Conv2d(256, 256, kernel_size=(3, 3), stride=(1, 1), padding=(1, 1), bias=False)
        (prelu): PReLU(num_parameters=256)
      )
      (conv2): ConvPrelu(
        (conv): Conv2d(256, 256, kernel_size=(3, 3), stride=(1, 1), padding=(1, 1), bias=False)
        (prelu): PReLU(num_parameters=256)
      )
    )
    (4): SimpleResidualUnit(
      (conv1): ConvPrelu(
        (conv): Conv2d(256, 256, kernel_size=(3, 3), stride=(1, 1), padding=(1, 1), bias=False)
        (prelu): PReLU(num_parameters=256)
      )
      (conv2): ConvPrelu(
        (conv): Conv2d(256, 256, kernel_size=(3, 3), stride=(1, 1), padding=(1, 1), bias=False)
        (prelu): PReLU(num_parameters=256)
      )
    )
    (5): SimpleResidualUnit(
      (conv1): ConvPrelu(
        (conv): Conv2d(256, 256, kernel_size=(3, 3), stride=(1, 1), padding=(1, 1), bias=False)
        (prelu): PReLU(num_parameters=256)
      )
      (conv2): ConvPrelu(
        (conv): Conv2d(256, 256, kernel_size=(3, 3), stride=(1, 1), padding=(1, 1), bias=False)
        (prelu): PReLU(num_parameters=256)
      )
    )
    (6): SimpleResidualUnit(
      (conv1): ConvPrelu(
        (conv): Conv2d(256, 256, kernel_size=(3, 3), stride=(1, 1), padding=(1, 1), bias=False)
        (prelu): PReLU(num_parameters=256)
      )
      (conv2): ConvPrelu(
        (conv): Conv2d(256, 256, kernel_size=(3, 3), stride=(1, 1), padding=(1, 1), bias=False)
        (prelu): PReLU(num_parameters=256)
      )
    )
    (7): SimpleResidualUnit(
      (conv1): ConvPrelu(
        (conv): Conv2d(256, 256, kernel_size=(3, 3), stride=(1, 1), padding=(1, 1), bias=False)
        (prelu): PReLU(num_parameters=256)
      )
      (conv2): ConvPrelu(
        (conv): Conv2d(256, 256, kernel_size=(3, 3), stride=(1, 1), padding=(1, 1), bias=False)
        (prelu): PReLU(num_parameters=256)
      )
    )
  )
  (conv3_down): ConvPrelu(
    (conv): Conv2d(128, 256, kernel_size=(3, 3), stride=(2, 2), padding=(1, 1), bias=False)
    (prelu): PReLU(num_parameters=256)
  )
  (layer3_down): Sequential(
    (0): SimpleResidualUnit(
      (conv1): ConvPrelu(
        (conv): Conv2d(256, 256, kernel_size=(3, 3), stride=(1, 1), padding=(1, 1), bias=False)
        (prelu): PReLU(num_parameters=256)
      )
      (conv2): ConvPrelu(
        (conv): Conv2d(256, 256, kernel_size=(3, 3), stride=(1, 1), padding=(1, 1), bias=False)
        (prelu): PReLU(num_parameters=256)
      )
    )
    (1): SimpleResidualUnit(
      (conv1): ConvPrelu(
        (conv): Conv2d(256, 256, kernel_size=(3, 3), stride=(1, 1), padding=(1, 1), bias=False)
        (prelu): PReLU(num_parameters=256)
      )
      (conv2): ConvPrelu(
        (conv): Conv2d(256, 256, kernel_size=(3, 3), stride=(1, 1), padding=(1, 1), bias=False)
        (prelu): PReLU(num_parameters=256)
      )
    )
    (2): SimpleResidualUnit(
      (conv1): ConvPrelu(
        (conv): Conv2d(256, 256, kernel_size=(3, 3), stride=(1, 1), padding=(1, 1), bias=False)
        (prelu): PReLU(num_parameters=256)
      )
      (conv2): ConvPrelu(
        (conv): Conv2d(256, 256, kernel_size=(3, 3), stride=(1, 1), padding=(1, 1), bias=False)
        (prelu): PReLU(num_parameters=256)
      )
    )
    (3): SimpleResidualUnit(
      (conv1): ConvPrelu(
        (conv): Conv2d(256, 256, kernel_size=(3, 3), stride=(1, 1), padding=(1, 1), bias=False)
        (prelu): PReLU(num_parameters=256)
      )
      (conv2): ConvPrelu(
        (conv): Conv2d(256, 256, kernel_size=(3, 3), stride=(1, 1), padding=(1, 1), bias=False)
        (prelu): PReLU(num_parameters=256)
      )
    )
    (4): SimpleResidualUnit(
      (conv1): ConvPrelu(
        (conv): Conv2d(256, 256, kernel_size=(3, 3), stride=(1, 1), padding=(1, 1), bias=False)
        (prelu): PReLU(num_parameters=256)
      )
      (conv2): ConvPrelu(
        (conv): Conv2d(256, 256, kernel_size=(3, 3), stride=(1, 1), padding=(1, 1), bias=False)
        (prelu): PReLU(num_parameters=256)
      )
    )
    (5): SimpleResidualUnit(
      (conv1): ConvPrelu(
        (conv): Conv2d(256, 256, kernel_size=(3, 3), stride=(1, 1), padding=(1, 1), bias=False)
        (prelu): PReLU(num_parameters=256)
      )
      (conv2): ConvPrelu(
        (conv): Conv2d(256, 256, kernel_size=(3, 3), stride=(1, 1), padding=(1, 1), bias=False)
        (prelu): PReLU(num_parameters=256)
      )
    )
    (6): SimpleResidualUnit(
      (conv1): ConvPrelu(
        (conv): Conv2d(256, 256, kernel_size=(3, 3), stride=(1, 1), padding=(1, 1), bias=False)
        (prelu): PReLU(num_parameters=256)
      )
      (conv2): ConvPrelu(
        (conv): Conv2d(256, 256, kernel_size=(3, 3), stride=(1, 1), padding=(1, 1), bias=False)
        (prelu): PReLU(num_parameters=256)
      )
    )
    (7): SimpleResidualUnit(
      (conv1): ConvPrelu(
        (conv): Conv2d(256, 256, kernel_size=(3, 3), stride=(1, 1), padding=(1, 1), bias=False)
        (prelu): PReLU(num_parameters=256)
      )
      (conv2): ConvPrelu(
        (conv): Conv2d(256, 256, kernel_size=(3, 3), stride=(1, 1), padding=(1, 1), bias=False)
        (prelu): PReLU(num_parameters=256)
      )
    )
  )
  (conv4_up): ConvPrelu(
    (conv): Conv2d(256, 512, kernel_size=(3, 3), stride=(2, 2), padding=(1, 1), bias=False)
    (prelu): PReLU(num_parameters=512)
  )
  (layer4_up): Sequential(
    (0): SimpleResidualUnit(
      (conv1): ConvPrelu(
        (conv): Conv2d(512, 512, kernel_size=(3, 3), stride=(1, 1), padding=(1, 1), bias=False)
        (prelu): PReLU(num_parameters=512)
      )
      (conv2): ConvPrelu(
        (conv): Conv2d(512, 512, kernel_size=(3, 3), stride=(1, 1), padding=(1, 1), bias=False)
        (prelu): PReLU(num_parameters=512)
      )
    )
    (1): SimpleResidualUnit(
      (conv1): ConvPrelu(
        (conv): Conv2d(512, 512, kernel_size=(3, 3), stride=(1, 1), padding=(1, 1), bias=False)
        (prelu): PReLU(num_parameters=512)
      )
      (conv2): ConvPrelu(
        (conv): Conv2d(512, 512, kernel_size=(3, 3), stride=(1, 1), padding=(1, 1), bias=False)
        (prelu): PReLU(num_parameters=512)
      )
    )
  )
  (conv4_down): ConvPrelu(
    (conv): Conv2d(256, 512, kernel_size=(3, 3), stride=(2, 2), padding=(1, 1), bias=False)
    (prelu): PReLU(num_parameters=512)
  )
  (layer4_down): Sequential(
    (0): SimpleResidualUnit(
      (conv1): ConvPrelu(
        (conv): Conv2d(512, 512, kernel_size=(3, 3), stride=(1, 1), padding=(1, 1), bias=False)
        (prelu): PReLU(num_parameters=512)
      )
      (conv2): ConvPrelu(
        (conv): Conv2d(512, 512, kernel_size=(3, 3), stride=(1, 1), padding=(1, 1), bias=False)
        (prelu): PReLU(num_parameters=512)
      )
    )
    (1): SimpleResidualUnit(
      (conv1): ConvPrelu(
        (conv): Conv2d(512, 512, kernel_size=(3, 3), stride=(1, 1), padding=(1, 1), bias=False)
        (prelu): PReLU(num_parameters=512)
      )
      (conv2): ConvPrelu(
        (conv): Conv2d(512, 512, kernel_size=(3, 3), stride=(1, 1), padding=(1, 1), bias=False)
        (prelu): PReLU(num_parameters=512)
      )
    )
  )
  (fc5_up): Linear(in_features=14336, out_features=256, bias=True)
  (fc5_down): Linear(in_features=14336, out_features=256, bias=True)
  (drop_out_up): Dropout2d(p=0.1, inplace=False)
)
2021-06-07 21:58:26,246: Use DP
2021-06-07 21:59:49,381: time cost, forward:0.024862925211588543, backward:0.2387549082438151, data cost:0.5701941914028592 
2021-06-07 21:59:49,382: ============================================================
2021-06-07 21:59:49,382: Epoch 1/38 Batch 100/7662 eta: 2 days, 19:02:50.369871	Training Loss 37.2758 (38.8093)	Training Total_Loss 37.2758 (38.8093)	Training Prec@1 0.000 (0.000)	Training Prec@5 0.000 (0.016)	
…
