…
sk_augu_full'), ('batch_size', 512), ('datanum', 3923399), ('num_class', 86876), ('lmdb_workers', 4), ('num_workers', 4), ('start_epoch', 1), ('max_epoch', 25), ('lr', 0.1), ('base', 'epoch'), ('step_size', [10, 20, 30, 40, 50, 60]), ('momentum', 0.9), ('gama', 0.1), ('weight_decay', 0.0005), ('rank', -1), ('dist_url', 'env://'), ('world_size', -1), ('gpu', None), ('dist_backend', 'nccl'), ('distributed', False), ('master_port', 32345), ('multiprocessing_distributed', False), ('SEED', 1337), ('local_rank', -1)]
2021-06-22 14:46:44,272: SimpleResidual_split_abla(
  (conv1): ConvPrelu(
    (conv): Conv2d(3, 64, kernel_size=(3, 3), stride=(2, 2), padding=(1, 1), bias=False)
    (prelu): PReLU(num_parameters=64)
  )
  (layer1): Sequential(
    (0): SimpleResidualUnit(
      (conv1): ConvPrelu(
        (conv): Conv2d(64, 64, kernel_size=(3, 3), stride=(1, 1), padding=(1, 1), bias=False)
        (prelu): PReLU(num_parameters=64)
      )
      (conv2): ConvPrelu(
        (conv): Conv2d(64, 64, kernel_size=(3, 3), stride=(1, 1), padding=(1, 1), bias=False)
        (prelu): PReLU(num_parameters=64)
      )
    )
    (1): SimpleResidualUnit(
      (conv1): ConvPrelu(
        (conv): Conv2d(64, 64, kernel_size=(3, 3), stride=(1, 1), padding=(1, 1), bias=False)
        (prelu): PReLU(num_parameters=64)
      )
      (conv2): ConvPrelu(
        (conv): Conv2d(64, 64, kernel_size=(3, 3), stride=(1, 1), padding=(1, 1), bias=False)
        (prelu): PReLU(num_parameters=64)
      )
    )
  )
  (conv2): ConvPrelu(
    (conv): Conv2d(64, 128, kernel_size=(3, 3), stride=(2, 2), padding=(1, 1), bias=False)
    (prelu): PReLU(num_parameters=128)
  )
  (layer2): Sequential(
    (0): SimpleResidualUnit(
      (conv1): ConvPrelu(
        (conv): Conv2d(128, 128, kernel_size=(3, 3), stride=(1, 1), padding=(1, 1), bias=False)
        (prelu): PReLU(num_parameters=128)
      )
      (conv2): ConvPrelu(
        (conv): Conv2d(128, 128, kernel_size=(3, 3), stride=(1, 1), padding=(1, 1), bias=False)
        (prelu): PReLU(num_parameters=128)
      )
    )
    (1): SimpleResidualUnit(
      (conv1): ConvPrelu(
        (conv): Conv2d(128, 128, kernel_size=(3, 3), stride=(1, 1), padding=(1, 1), bias=False)
        (prelu): PReLU(num_parameters=128)
      )
      (conv2): ConvPrelu(
        (conv): Conv2d(128, 128, kernel_size=(3, 3), stride=(1, 1), padding=(1, 1), bias=False)
        (prelu): PReLU(num_parameters=128)
      )
    )
    (2): SimpleResidualUnit(
      (conv1): ConvPrelu(
        (conv): Conv2d(128, 128, kernel_size=(3, 3), stride=(1, 1), padding=(1, 1), bias=False)
        (prelu): PReLU(num_parameters=128)
      )
      (conv2): ConvPrelu(
        (conv): Conv2d(128, 128, kernel_size=(3, 3), stride=(1, 1), padding=(1, 1), bias=False)
        (prelu): PReLU(num_parameters=128)
      )
    )
    (3): SimpleResidualUnit(
      (conv1): ConvPrelu(
        (conv): Conv2d(128, 128, kernel_size=(3, 3), stride=(1, 1), padding=(1, 1), bias=False)
        (prelu): PReLU(num_parameters=128)
      )
      (conv2): ConvPrelu(
        (conv): Conv2d(128, 128, kernel_size=(3, 3), stride=(1, 1), padding=(1, 1), bias=False)
        (prelu): PReLU(num_parameters=128)
      )
    )
  )
  (conv3): ConvPrelu(
    (conv): Conv2d(128, 256, kernel_size=(3, 3), stride=(2, 2), padding=(1, 1), bias=False)
    (prelu): PReLU(num_parameters=256)
  )
  (layer3): Sequential(
    (0): SimpleResidualUnit(
      (conv1): ConvPrelu(
        (conv): Conv2d(256, 256, kernel_size=(3, 3), stride=(1, 1), padding=(1, 1), bias=False)
        (prelu): PReLU(num_parameters=256)
      )
      (conv2): ConvPrelu(
        (conv): Conv2d(256, 256, kernel_size=(3, 3), stride=(1, 1), padding=(1, 1), bias=False)
        (prelu): PReLU(num_parameters=256)
      )
    )
    (1): SimpleResidualUnit(
      (conv1): ConvPrelu(
        (conv): Conv2d(256, 256, kernel_size=(3, 3), stride=(1, 1), padding=(1, 1), bias=False)
        (prelu): PReLU(num_parameters=256)
      )
      (conv2): ConvPrelu(
        (conv): Conv2d(256, 256, kernel_size=(3, 3), stride=(1, 1), padding=(1, 1), bias=False)
        (prelu): PReLU(num_parameters=256)
      )
    )
    (2): SimpleResidualUnit(
      (conv1): ConvPrelu(
        (conv): Conv2d(256, 256, kernel_size=(3, 3), stride=(1, 1), padding=(1, 1), bias=False)
        (prelu): PReLU(num_parameters=256)
      )
      (conv2): ConvPrelu(
        (conv): Conv2d(256, 256, kernel_size=(3, 3), stride=(1, 1), padding=(1, 1), bias=False)
        (prelu): PReLU(num_parameters=256)
      )
    )
    (3): SimpleResidualUnit(
      (conv1): ConvPrelu(
        (conv): Conv2d(256, 256, kernel_size=(3, 3), stride=(1, 1), padding=(1, 1), bias=False)
        (prelu): PReLU(num_parameters=256)
      )
      (conv2): ConvPrelu(
        (conv): Conv2d(256, 256, kernel_size=(3, 3), stride=(1, 1), padding=(1, 1), bias=False)
        (prelu): PReLU(num_parameters=256)
      )
    )
    (4): SimpleResidualUnit(
      (conv1): ConvPrelu(
        (conv): Conv2d(256, 256, kernel_size=(3, 3), stride=(1, 1), padding=(1, 1), bias=False)
        (prelu): PReLU(num_parameters=256)
      )
      (conv2): ConvPrelu(
        (conv): Conv2d(256, 256, kernel_size=(3, 3), stride=(1, 1), padding=(1, 1), bias=False)
        (prelu): PReLU(num_parameters=256)
      )
    )
    (5): SimpleResidualUnit(
      (conv1): ConvPrelu(
        (conv): Conv2d(256, 256, kernel_size=(3, 3), stride=(1, 1), padding=(1, 1), bias=False)
        (prelu): PReLU(num_parameters=256)
      )
      (conv2): ConvPrelu(
        (conv): Conv2d(256, 256, kernel_size=(3, 3), stride=(1, 1), padding=(1, 1), bias=False)
        (prelu): PReLU(num_parameters=256)
      )
    )
    (6): SimpleResidualUnit(
      (conv1): ConvPrelu(
        (conv): Conv2d(256, 256, kernel_size=(3, 3), stride=(1, 1), padding=(1, 1), bias=False)
        (prelu): PReLU(num_parameters=256)
      )
      (conv2): ConvPrelu(
        (conv): Conv2d(256, 256, kernel_size=(3, 3), stride=(1, 1), padding=(1, 1), bias=False)
        (prelu): PReLU(num_parameters=256)
      )
    )
    (7): SimpleResidualUnit(
      (conv1): ConvPrelu(
        (conv): Conv2d(256, 256, kernel_size=(3, 3), stride=(1, 1), padding=(1, 1), bias=False)
        (prelu): PReLU(num_parameters=256)
      )
      (conv2): ConvPrelu(
        (conv): Conv2d(256, 256, kernel_size=(3, 3), stride=(1, 1), padding=(1, 1), bias=False)
        (prelu): PReLU(num_parameters=256)
      )
    )
  )
  (backbone): Sequential(
    (0): ConvPrelu(
      (conv): Conv2d(3, 64, kernel_size=(3, 3), stride=(2, 2), padding=(1, 1), bias=False)
      (prelu): PReLU(num_parameters=64)
    )
    (1): Sequential(
      (0): SimpleResidualUnit(
        (conv1): ConvPrelu(
          (conv): Conv2d(64, 64, kernel_size=(3, 3), stride=(1, 1), padding=(1, 1), bias=False)
          (prelu): PReLU(num_parameters=64)
        )
        (conv2): ConvPrelu(
          (conv): Conv2d(64, 64, kernel_size=(3, 3), stride=(1, 1), padding=(1, 1), bias=False)
          (prelu): PReLU(num_parameters=64)
        )
      )
      (1): SimpleResidualUnit(
        (conv1): ConvPrelu(
          (conv): Conv2d(64, 64, kernel_size=(3, 3), stride=(1, 1), padding=(1, 1), bias=False)
          (prelu): PReLU(num_parameters=64)
        )
        (conv2): ConvPrelu(
          (conv): Conv2d(64, 64, kernel_size=(3, 3), stride=(1, 1), padding=(1, 1), bias=False)
          (prelu): PReLU(num_parameters=64)
        )
      )
    )
    (2): ConvPrelu(
      (conv): Conv2d(64, 128, kernel_size=(3, 3), stride=(2, 2), padding=(1, 1), bias=False)
      (prelu): PReLU(num_parameters=128)
    )
    (3): Sequential(
      (0): SimpleResidualUnit(
        (conv1): ConvPrelu(
          (conv): Conv2d(128, 128, kernel_size=(3, 3), stride=(1, 1), padding=(1, 1), bias=False)
          (prelu): PReLU(num_parameters=128)
        )
        (conv2): ConvPrelu(
          (conv): Conv2d(128, 128, kernel_size=(3, 3), stride=(1, 1), padding=(1, 1), bias=False)
          (prelu): PReLU(num_parameters=128)
        )
      )
      (1): SimpleResidualUnit(
        (conv1): ConvPrelu(
          (conv): Conv2d(128, 128, kernel_size=(3, 3), stride=(1, 1), padding=(1, 1), bias=False)
          (prelu): PReLU(num_parameters=128)
        )
        (conv2): ConvPrelu(
          (conv): Conv2d(128, 128, kernel_size=(3, 3), stride=(1, 1), padding=(1, 1), bias=False)
          (prelu): PReLU(num_parameters=128)
        )
      )
      (2): SimpleResidualUnit(
        (conv1): ConvPrelu(
          (conv): Conv2d(128, 128, kernel_size=(3, 3), stride=(1, 1), padding=(1, 1), bias=False)
          (prelu): PReLU(num_parameters=128)
        )
        (conv2): ConvPrelu(
          (conv): Conv2d(128, 128, kernel_size=(3, 3), stride=(1, 1), padding=(1, 1), bias=False)
          (prelu): PReLU(num_parameters=128)
        )
      )
      (3): SimpleResidualUnit(
        (conv1): ConvPrelu(
          (conv): Conv2d(128, 128, kernel_size=(3, 3), stride=(1, 1), padding=(1, 1), bias=False)
          (prelu): PReLU(num_parameters=128)
        )
        (conv2): ConvPrelu(
          (conv): Conv2d(128, 128, kernel_size=(3, 3), stride=(1, 1), padding=(1, 1), bias=False)
          (prelu): PReLU(num_parameters=128)
        )
      )
    )
    (4): ConvPrelu(
      (conv): Conv2d(128, 256, kernel_size=(3, 3), stride=(2, 2), padding=(1, 1), bias=False)
      (prelu): PReLU(num_parameters=256)
    )
    (5): Sequential(
      (0): SimpleResidualUnit(
        (conv1): ConvPrelu(
          (conv): Conv2d(256, 256, kernel_size=(3, 3), stride=(1, 1), padding=(1, 1), bias=False)
          (prelu): PReLU(num_parameters=256)
        )
        (conv2): ConvPrelu(
          (conv): Conv2d(256, 256, kernel_size=(3, 3), stride=(1, 1), padding=(1, 1), bias=False)
          (prelu): PReLU(num_parameters=256)
        )
      )
      (1): SimpleResidualUnit(
        (conv1): ConvPrelu(
          (conv): Conv2d(256, 256, kernel_size=(3, 3), stride=(1, 1), padding=(1, 1), bias=False)
          (prelu): PReLU(num_parameters=256)
        )
        (conv2): ConvPrelu(
          (conv): Conv2d(256, 256, kernel_size=(3, 3), stride=(1, 1), padding=(1, 1), bias=False)
          (prelu): PReLU(num_parameters=256)
        )
      )
      (2): SimpleResidualUnit(
        (conv1): ConvPrelu(
          (conv): Conv2d(256, 256, kernel_size=(3, 3), stride=(1, 1), padding=(1, 1), bias=False)
          (prelu): PReLU(num_parameters=256)
        )
        (conv2): ConvPrelu(
          (conv): Conv2d(256, 256, kernel_size=(3, 3), stride=(1, 1), padding=(1, 1), bias=False)
          (prelu): PReLU(num_parameters=256)
        )
      )
      (3): SimpleResidualUnit(
        (conv1): ConvPrelu(
          (conv): Conv2d(256, 256, kernel_size=(3, 3), stride=(1, 1), padding=(1, 1), bias=False)
          (prelu): PReLU(num_parameters=256)
        )
        (conv2): ConvPrelu(
          (conv): Conv2d(256, 256, kernel_size=(3, 3), stride=(1, 1), padding=(1, 1), bias=False)
          (prelu): PReLU(num_parameters=256)
        )
      )
      (4): SimpleResidualUnit(
        (conv1): ConvPrelu(
          (conv): Conv2d(256, 256, kernel_size=(3, 3), stride=(1, 1), padding=(1, 1), bias=False)
          (prelu): PReLU(num_parameters=256)
        )
        (conv2): ConvPrelu(
          (conv): Conv2d(256, 256, kernel_size=(3, 3), stride=(1, 1), padding=(1, 1), bias=False)
          (prelu): PReLU(num_parameters=256)
        )
      )
      (5): SimpleResidualUnit(
        (conv1): ConvPrelu(
          (conv): Conv2d(256, 256, kernel_size=(3, 3), stride=(1, 1), padding=(1, 1), bias=False)
          (prelu): PReLU(num_parameters=256)
        )
        (conv2): ConvPrelu(
          (conv): Conv2d(256, 256, kernel_size=(3, 3), stride=(1, 1), padding=(1, 1), bias=False)
          (prelu): PReLU(num_parameters=256)
        )
      )
      (6): SimpleResidualUnit(
        (conv1): ConvPrelu(
          (conv): Conv2d(256, 256, kernel_size=(3, 3), stride=(1, 1), padding=(1, 1), bias=False)
          (prelu): PReLU(num_parameters=256)
        )
        (conv2): ConvPrelu(
          (conv): Conv2d(256, 256, kernel_size=(3, 3), stride=(1, 1), padding=(1, 1), bias=False)
          (prelu): PReLU(num_parameters=256)
        )
      )
      (7): SimpleResidualUnit(
        (conv1): ConvPrelu(
          (conv): Conv2d(256, 256, kernel_size=(3, 3), stride=(1, 1), padding=(1, 1), bias=False)
          (prelu): PReLU(num_parameters=256)
        )
        (conv2): ConvPrelu(
          (conv): Conv2d(256, 256, kernel_size=(3, 3), stride=(1, 1), padding=(1, 1), bias=False)
          (prelu): PReLU(num_parameters=256)
        )
      )
    )
  )
  (SSS_up): SpaceSliceStrategy_subject(
    (layer4): Sequential(
      (0): SimpleResidualUnit(
        (conv1): ConvPrelu(
          (conv): Conv2d(512, 512, kernel_size=(3, 3), stride=(1, 1), padding=(1, 1), bias=False)
          (prelu): PReLU(num_parameters=512)
        )
        (conv2): ConvPrelu(
          (conv): Conv2d(512, 512, kernel_size=(3, 3), stride=(1, 1), padding=(1, 1), bias=False)
          (prelu): PReLU(num_parameters=512)
        )
      )
      (1): SimpleResidualUnit(
        (conv1): ConvPrelu(
          (conv): Conv2d(512, 512, kernel_size=(3, 3), stride=(1, 1), padding=(1, 1), bias=False)
          (prelu): PReLU(num_parameters=512)
        )
        (conv2): ConvPrelu(
          (conv): Conv2d(512, 512, kernel_size=(3, 3), stride=(1, 1), padding=(1, 1), bias=False)
          (prelu): PReLU(num_parameters=512)
        )
      )
    )
    (conv4): ConvPrelu(
      (conv): Conv2d(256, 512, kernel_size=(3, 3), stride=(2, 2), padding=(1, 1), bias=False)
      (prelu): PReLU(num_parameters=512)
    )
    (subject): ModuleList(
      (0): Sequential(
        (0): SimpleResidualUnit(
          (conv1): ConvPrelu(
            (conv): Conv2d(512, 512, kernel_size=(3, 3), stride=(1, 1), padding=(1, 1), bias=False)
            (prelu): PReLU(num_parameters=512)
          )
          (conv2): ConvPrelu(
            (conv): Conv2d(512, 512, kernel_size=(3, 3), stride=(1, 1), padding=(1, 1), bias=False)
            (prelu): PReLU(num_parameters=512)
          )
        )
        (1): SimpleResidualUnit(
          (conv1): ConvPrelu(
            (conv): Conv2d(512, 512, kernel_size=(3, 3), stride=(1, 1), padding=(1, 1), bias=False)
            (prelu): PReLU(num_parameters=512)
          )
          (conv2): ConvPrelu(
            (conv): Conv2d(512, 512, kernel_size=(3, 3), stride=(1, 1), padding=(1, 1), bias=False)
            (prelu): PReLU(num_parameters=512)
          )
        )
      )
      (1): ConvPrelu(
        (conv): Conv2d(256, 512, kernel_size=(3, 3), stride=(2, 2), padding=(1, 1), bias=False)
        (prelu): PReLU(num_parameters=512)
      )
    )
  )
  (SSS_down): SpaceSliceStrategy_subject(
    (layer4): Sequential(
      (0): SimpleResidualUnit(
        (conv1): ConvPrelu(
          (conv): Conv2d(512, 512, kernel_size=(3, 3), stride=(1, 1), padding=(1, 1), bias=False)
          (prelu): PReLU(num_parameters=512)
        )
        (conv2): ConvPrelu(
          (conv): Conv2d(512, 512, kernel_size=(3, 3), stride=(1, 1), padding=(1, 1), bias=False)
          (prelu): PReLU(num_parameters=512)
        )
      )
      (1): SimpleResidualUnit(
        (conv1): ConvPrelu(
          (conv): Conv2d(512, 512, kernel_size=(3, 3), stride=(1, 1), padding=(1, 1), bias=False)
          (prelu): PReLU(num_parameters=512)
        )
        (conv2): ConvPrelu(
          (conv): Conv2d(512, 512, kernel_size=(3, 3), stride=(1, 1), padding=(1, 1), bias=False)
          (prelu): PReLU(num_parameters=512)
        )
      )
    )
    (conv4): ConvPrelu(
      (conv): Conv2d(256, 512, kernel_size=(3, 3), stride=(2, 2), padding=(1, 1), bias=False)
      (prelu): PReLU(num_parameters=512)
    )
    (subject): ModuleList(
      (0): Sequential(
        (0): SimpleResidualUnit(
          (conv1): ConvPrelu(
            (conv): Conv2d(512, 512, kernel_size=(3, 3), stride=(1, 1), padding=(1, 1), bias=False)
            (prelu): PReLU(num_parameters=512)
          )
          (conv2): ConvPrelu(
            (conv): Conv2d(512, 512, kernel_size=(3, 3), stride=(1, 1), padding=(1, 1), bias=False)
            (prelu): PReLU(num_parameters=512)
          )
        )
        (1): SimpleResidualUnit(
          (conv1): ConvPrelu(
            (conv): Conv2d(512, 512, kernel_size=(3, 3), stride=(1, 1), padding=(1, 1), bias=False)
            (prelu): PReLU(num_parameters=512)
          )
          (conv2): ConvPrelu(
            (conv): Conv2d(512, 512, kernel_size=(3, 3), stride=(1, 1), padding=(1, 1), bias=False)
            (prelu): PReLU(num_parameters=512)
          )
        )
      )
      (1): ConvPrelu(
        (conv): Conv2d(256, 512, kernel_size=(3, 3), stride=(2, 2), padding=(1, 1), bias=False)
        (prelu): PReLU(num_parameters=512)
      )
    )
  )
  (fc_up): Linear(in_features=10752, out_features=256, bias=True)
  (fc_down): Linear(in_features=14336, out_features=256, bias=True)
)
2021-06-22 14:46:48,147: Use DP
2021-06-22 14:48:14,002: time cost, forward:0.021437717206550366, backward:0.048289778256657145, data cost:0.6521548117050017 
2021-06-22 14:48:14,003: ============================================================
2021-06-22 14:48:14,003: Epoch 1/25 Batch 100/7662 eta: 1 day, 21:33:28.021810	Training Loss2 21.8722 (26.2273)	Training Loss3 21.8722 (24.7726)	Training Total_Loss 43.7445 (50.9999)	Training Prec@1_up 0.000 (0.000)	Training Prec@1_down 0.000 (0.000)	
…
