…
9), ('num_class', 86876), ('lmdb_workers', 4), ('num_workers', 4), ('start_epoch', 1), ('max_epoch', 25), ('lr', 0.1), ('base', 'epoch'), ('step_size', [10, 20, 30, 40, 50, 60]), ('momentum', 0.9), ('gama', 0.1), ('weight_decay', 0.0005), ('rank', -1), ('dist_url', 'env://'), ('world_size', -1), ('gpu', None), ('dist_backend', 'nccl'), ('distributed', False), ('master_port', 32345), ('multiprocessing_distributed', False), ('SEED', 1337), ('local_rank', -1)]
2021-06-24 14:51:58,435: SimpleResidual_fullsplit_Backbone(
  (layer_up): SimpleResidual_split_Branch(
    (conv1): ConvPrelu(
      (conv): Conv2d(3, 64, kernel_size=(3, 3), stride=(2, 2), padding=(1, 1), bias=False)
      (prelu): PReLU(num_parameters=64)
    )
    (layer1): Sequential(
      (0): SimpleResidualUnit(
        (conv1): ConvPrelu(
          (conv): Conv2d(64, 64, kernel_size=(3, 3), stride=(1, 1), padding=(1, 1), bias=False)
          (prelu): PReLU(num_parameters=64)
        )
        (conv2): ConvPrelu(
          (conv): Conv2d(64, 64, kernel_size=(3, 3), stride=(1, 1), padding=(1, 1), bias=False)
          (prelu): PReLU(num_parameters=64)
        )
      )
      (1): SimpleResidualUnit(
        (conv1): ConvPrelu(
          (conv): Conv2d(64, 64, kernel_size=(3, 3), stride=(1, 1), padding=(1, 1), bias=False)
          (prelu): PReLU(num_parameters=64)
        )
        (conv2): ConvPrelu(
          (conv): Conv2d(64, 64, kernel_size=(3, 3), stride=(1, 1), padding=(1, 1), bias=False)
          (prelu): PReLU(num_parameters=64)
        )
      )
    )
    (conv2): ConvPrelu(
      (conv): Conv2d(64, 128, kernel_size=(3, 3), stride=(2, 2), padding=(1, 1), bias=False)
      (prelu): PReLU(num_parameters=128)
    )
    (layer2): Sequential(
      (0): SimpleResidualUnit(
        (conv1): ConvPrelu(
          (conv): Conv2d(128, 128, kernel_size=(3, 3), stride=(1, 1), padding=(1, 1), bias=False)
          (prelu): PReLU(num_parameters=128)
        )
        (conv2): ConvPrelu(
          (conv): Conv2d(128, 128, kernel_size=(3, 3), stride=(1, 1), padding=(1, 1), bias=False)
          (prelu): PReLU(num_parameters=128)
        )
      )
      (1): SimpleResidualUnit(
        (conv1): ConvPrelu(
          (conv): Conv2d(128, 128, kernel_size=(3, 3), stride=(1, 1), padding=(1, 1), bias=False)
          (prelu): PReLU(num_parameters=128)
        )
        (conv2): ConvPrelu(
          (conv): Conv2d(128, 128, kernel_size=(3, 3), stride=(1, 1), padding=(1, 1), bias=False)
          (prelu): PReLU(num_parameters=128)
        )
      )
      (2): SimpleResidualUnit(
        (conv1): ConvPrelu(
          (conv): Conv2d(128, 128, kernel_size=(3, 3), stride=(1, 1), padding=(1, 1), bias=False)
          (prelu): PReLU(num_parameters=128)
        )
        (conv2): ConvPrelu(
          (conv): Conv2d(128, 128, kernel_size=(3, 3), stride=(1, 1), padding=(1, 1), bias=False)
          (prelu): PReLU(num_parameters=128)
        )
      )
      (3): SimpleResidualUnit(
        (conv1): ConvPrelu(
          (conv): Conv2d(128, 128, kernel_size=(3, 3), stride=(1, 1), padding=(1, 1), bias=False)
          (prelu): PReLU(num_parameters=128)
        )
        (conv2): ConvPrelu(
          (conv): Conv2d(128, 128, kernel_size=(3, 3), stride=(1, 1), padding=(1, 1), bias=False)
          (prelu): PReLU(num_parameters=128)
        )
      )
    )
    (conv3): ConvPrelu(
      (conv): Conv2d(128, 256, kernel_size=(3, 3), stride=(2, 2), padding=(1, 1), bias=False)
      (prelu): PReLU(num_parameters=256)
    )
    (layer3): Sequential(
      (0): SimpleResidualUnit(
        (conv1): ConvPrelu(
          (conv): Conv2d(256, 256, kernel_size=(3, 3), stride=(1, 1), padding=(1, 1), bias=False)
          (prelu): PReLU(num_parameters=256)
        )
        (conv2): ConvPrelu(
          (conv): Conv2d(256, 256, kernel_size=(3, 3), stride=(1, 1), padding=(1, 1), bias=False)
          (prelu): PReLU(num_parameters=256)
        )
      )
      (1): SimpleResidualUnit(
        (conv1): ConvPrelu(
          (conv): Conv2d(256, 256, kernel_size=(3, 3), stride=(1, 1), padding=(1, 1), bias=False)
          (prelu): PReLU(num_parameters=256)
        )
        (conv2): ConvPrelu(
          (conv): Conv2d(256, 256, kernel_size=(3, 3), stride=(1, 1), padding=(1, 1), bias=False)
          (prelu): PReLU(num_parameters=256)
        )
      )
      (2): SimpleResidualUnit(
        (conv1): ConvPrelu(
          (conv): Conv2d(256, 256, kernel_size=(3, 3), stride=(1, 1), padding=(1, 1), bias=False)
          (prelu): PReLU(num_parameters=256)
        )
        (conv2): ConvPrelu(
          (conv): Conv2d(256, 256, kernel_size=(3, 3), stride=(1, 1), padding=(1, 1), bias=False)
          (prelu): PReLU(num_parameters=256)
        )
      )
      (3): SimpleResidualUnit(
        (conv1): ConvPrelu(
          (conv): Conv2d(256, 256, kernel_size=(3, 3), stride=(1, 1), padding=(1, 1), bias=False)
          (prelu): PReLU(num_parameters=256)
        )
        (conv2): ConvPrelu(
          (conv): Conv2d(256, 256, kernel_size=(3, 3), stride=(1, 1), padding=(1, 1), bias=False)
          (prelu): PReLU(num_parameters=256)
        )
      )
      (4): SimpleResidualUnit(
        (conv1): ConvPrelu(
          (conv): Conv2d(256, 256, kernel_size=(3, 3), stride=(1, 1), padding=(1, 1), bias=False)
          (prelu): PReLU(num_parameters=256)
        )
        (conv2): ConvPrelu(
          (conv): Conv2d(256, 256, kernel_size=(3, 3), stride=(1, 1), padding=(1, 1), bias=False)
          (prelu): PReLU(num_parameters=256)
        )
      )
      (5): SimpleResidualUnit(
        (conv1): ConvPrelu(
          (conv): Conv2d(256, 256, kernel_size=(3, 3), stride=(1, 1), padding=(1, 1), bias=False)
          (prelu): PReLU(num_parameters=256)
        )
        (conv2): ConvPrelu(
          (conv): Conv2d(256, 256, kernel_size=(3, 3), stride=(1, 1), padding=(1, 1), bias=False)
          (prelu): PReLU(num_parameters=256)
        )
      )
      (6): SimpleResidualUnit(
        (conv1): ConvPrelu(
          (conv): Conv2d(256, 256, kernel_size=(3, 3), stride=(1, 1), padding=(1, 1), bias=False)
          (prelu): PReLU(num_parameters=256)
        )
        (conv2): ConvPrelu(
          (conv): Conv2d(256, 256, kernel_size=(3, 3), stride=(1, 1), padding=(1, 1), bias=False)
          (prelu): PReLU(num_parameters=256)
        )
      )
      (7): SimpleResidualUnit(
        (conv1): ConvPrelu(
          (conv): Conv2d(256, 256, kernel_size=(3, 3), stride=(1, 1), padding=(1, 1), bias=False)
          (prelu): PReLU(num_parameters=256)
        )
        (conv2): ConvPrelu(
          (conv): Conv2d(256, 256, kernel_size=(3, 3), stride=(1, 1), padding=(1, 1), bias=False)
          (prelu): PReLU(num_parameters=256)
        )
      )
    )
    (conv4): ConvPrelu(
      (conv): Conv2d(256, 512, kernel_size=(3, 3), stride=(2, 2), padding=(1, 1), bias=False)
      (prelu): PReLU(num_parameters=512)
    )
    (layer4): Sequential(
      (0): SimpleResidualUnit(
        (conv1): ConvPrelu(
          (conv): Conv2d(512, 512, kernel_size=(3, 3), stride=(1, 1), padding=(1, 1), bias=False)
          (prelu): PReLU(num_parameters=512)
        )
        (conv2): ConvPrelu(
          (conv): Conv2d(512, 512, kernel_size=(3, 3), stride=(1, 1), padding=(1, 1), bias=False)
          (prelu): PReLU(num_parameters=512)
        )
      )
      (1): SimpleResidualUnit(
        (conv1): ConvPrelu(
          (conv): Conv2d(512, 512, kernel_size=(3, 3), stride=(1, 1), padding=(1, 1), bias=False)
          (prelu): PReLU(num_parameters=512)
        )
        (conv2): ConvPrelu(
          (conv): Conv2d(512, 512, kernel_size=(3, 3), stride=(1, 1), padding=(1, 1), bias=False)
          (prelu): PReLU(num_parameters=512)
        )
      )
    )
    (fc5): Linear(in_features=14336, out_features=256, bias=True)
  )
  (layer_down): SimpleResidual_split_Branch(
    (conv1): ConvPrelu(
      (conv): Conv2d(3, 64, kernel_size=(3, 3), stride=(2, 2), padding=(1, 1), bias=False)
      (prelu): PReLU(num_parameters=64)
    )
    (layer1): Sequential(
      (0): SimpleResidualUnit(
        (conv1): ConvPrelu(
          (conv): Conv2d(64, 64, kernel_size=(3, 3), stride=(1, 1), padding=(1, 1), bias=False)
          (prelu): PReLU(num_parameters=64)
        )
        (conv2): ConvPrelu(
          (conv): Conv2d(64, 64, kernel_size=(3, 3), stride=(1, 1), padding=(1, 1), bias=False)
          (prelu): PReLU(num_parameters=64)
        )
      )
      (1): SimpleResidualUnit(
        (conv1): ConvPrelu(
          (conv): Conv2d(64, 64, kernel_size=(3, 3), stride=(1, 1), padding=(1, 1), bias=False)
          (prelu): PReLU(num_parameters=64)
        )
        (conv2): ConvPrelu(
          (conv): Conv2d(64, 64, kernel_size=(3, 3), stride=(1, 1), padding=(1, 1), bias=False)
          (prelu): PReLU(num_parameters=64)
        )
      )
    )
    (conv2): ConvPrelu(
      (conv): Conv2d(64, 128, kernel_size=(3, 3), stride=(2, 2), padding=(1, 1), bias=False)
      (prelu): PReLU(num_parameters=128)
    )
    (layer2): Sequential(
      (0): SimpleResidualUnit(
        (conv1): ConvPrelu(
          (conv): Conv2d(128, 128, kernel_size=(3, 3), stride=(1, 1), padding=(1, 1), bias=False)
          (prelu): PReLU(num_parameters=128)
        )
        (conv2): ConvPrelu(
          (conv): Conv2d(128, 128, kernel_size=(3, 3), stride=(1, 1), padding=(1, 1), bias=False)
          (prelu): PReLU(num_parameters=128)
        )
      )
      (1): SimpleResidualUnit(
        (conv1): ConvPrelu(
          (conv): Conv2d(128, 128, kernel_size=(3, 3), stride=(1, 1), padding=(1, 1), bias=False)
          (prelu): PReLU(num_parameters=128)
        )
        (conv2): ConvPrelu(
          (conv): Conv2d(128, 128, kernel_size=(3, 3), stride=(1, 1), padding=(1, 1), bias=False)
          (prelu): PReLU(num_parameters=128)
        )
      )
      (2): SimpleResidualUnit(
        (conv1): ConvPrelu(
          (conv): Conv2d(128, 128, kernel_size=(3, 3), stride=(1, 1), padding=(1, 1), bias=False)
          (prelu): PReLU(num_parameters=128)
        )
        (conv2): ConvPrelu(
          (conv): Conv2d(128, 128, kernel_size=(3, 3), stride=(1, 1), padding=(1, 1), bias=False)
          (prelu): PReLU(num_parameters=128)
        )
      )
      (3): SimpleResidualUnit(
        (conv1): ConvPrelu(
          (conv): Conv2d(128, 128, kernel_size=(3, 3), stride=(1, 1), padding=(1, 1), bias=False)
          (prelu): PReLU(num_parameters=128)
        )
        (conv2): ConvPrelu(
          (conv): Conv2d(128, 128, kernel_size=(3, 3), stride=(1, 1), padding=(1, 1), bias=False)
          (prelu): PReLU(num_parameters=128)
        )
      )
    )
    (conv3): ConvPrelu(
      (conv): Conv2d(128, 256, kernel_size=(3, 3), stride=(2, 2), padding=(1, 1), bias=False)
      (prelu): PReLU(num_parameters=256)
    )
    (layer3): Sequential(
      (0): SimpleResidualUnit(
        (conv1): ConvPrelu(
          (conv): Conv2d(256, 256, kernel_size=(3, 3), stride=(1, 1), padding=(1, 1), bias=False)
          (prelu): PReLU(num_parameters=256)
        )
        (conv2): ConvPrelu(
          (conv): Conv2d(256, 256, kernel_size=(3, 3), stride=(1, 1), padding=(1, 1), bias=False)
          (prelu): PReLU(num_parameters=256)
        )
      )
      (1): SimpleResidualUnit(
        (conv1): ConvPrelu(
          (conv): Conv2d(256, 256, kernel_size=(3, 3), stride=(1, 1), padding=(1, 1), bias=False)
          (prelu): PReLU(num_parameters=256)
        )
        (conv2): ConvPrelu(
          (conv): Conv2d(256, 256, kernel_size=(3, 3), stride=(1, 1), padding=(1, 1), bias=False)
          (prelu): PReLU(num_parameters=256)
        )
      )
      (2): SimpleResidualUnit(
        (conv1): ConvPrelu(
          (conv): Conv2d(256, 256, kernel_size=(3, 3), stride=(1, 1), padding=(1, 1), bias=False)
          (prelu): PReLU(num_parameters=256)
        )
        (conv2): ConvPrelu(
          (conv): Conv2d(256, 256, kernel_size=(3, 3), stride=(1, 1), padding=(1, 1), bias=False)
          (prelu): PReLU(num_parameters=256)
        )
      )
      (3): SimpleResidualUnit(
        (conv1): ConvPrelu(
          (conv): Conv2d(256, 256, kernel_size=(3, 3), stride=(1, 1), padding=(1, 1), bias=False)
          (prelu): PReLU(num_parameters=256)
        )
        (conv2): ConvPrelu(
          (conv): Conv2d(256, 256, kernel_size=(3, 3), stride=(1, 1), padding=(1, 1), bias=False)
          (prelu): PReLU(num_parameters=256)
        )
      )
      (4): SimpleResidualUnit(
        (conv1): ConvPrelu(
          (conv): Conv2d(256, 256, kernel_size=(3, 3), stride=(1, 1), padding=(1, 1), bias=False)
          (prelu): PReLU(num_parameters=256)
        )
        (conv2): ConvPrelu(
          (conv): Conv2d(256, 256, kernel_size=(3, 3), stride=(1, 1), padding=(1, 1), bias=False)
          (prelu): PReLU(num_parameters=256)
        )
      )
      (5): SimpleResidualUnit(
        (conv1): ConvPrelu(
          (conv): Conv2d(256, 256, kernel_size=(3, 3), stride=(1, 1), padding=(1, 1), bias=False)
          (prelu): PReLU(num_parameters=256)
        )
        (conv2): ConvPrelu(
          (conv): Conv2d(256, 256, kernel_size=(3, 3), stride=(1, 1), padding=(1, 1), bias=False)
          (prelu): PReLU(num_parameters=256)
        )
      )
      (6): SimpleResidualUnit(
        (conv1): ConvPrelu(
          (conv): Conv2d(256, 256, kernel_size=(3, 3), stride=(1, 1), padding=(1, 1), bias=False)
          (prelu): PReLU(num_parameters=256)
        )
        (conv2): ConvPrelu(
          (conv): Conv2d(256, 256, kernel_size=(3, 3), stride=(1, 1), padding=(1, 1), bias=False)
          (prelu): PReLU(num_parameters=256)
        )
      )
      (7): SimpleResidualUnit(
        (conv1): ConvPrelu(
          (conv): Conv2d(256, 256, kernel_size=(3, 3), stride=(1, 1), padding=(1, 1), bias=False)
          (prelu): PReLU(num_parameters=256)
        )
        (conv2): ConvPrelu(
          (conv): Conv2d(256, 256, kernel_size=(3, 3), stride=(1, 1), padding=(1, 1), bias=False)
          (prelu): PReLU(num_parameters=256)
        )
      )
    )
    (conv4): ConvPrelu(
      (conv): Conv2d(256, 512, kernel_size=(3, 3), stride=(2, 2), padding=(1, 1), bias=False)
      (prelu): PReLU(num_parameters=512)
    )
    (layer4): Sequential(
      (0): SimpleResidualUnit(
        (conv1): ConvPrelu(
          (conv): Conv2d(512, 512, kernel_size=(3, 3), stride=(1, 1), padding=(1, 1), bias=False)
          (prelu): PReLU(num_parameters=512)
        )
        (conv2): ConvPrelu(
          (conv): Conv2d(512, 512, kernel_size=(3, 3), stride=(1, 1), padding=(1, 1), bias=False)
          (prelu): PReLU(num_parameters=512)
        )
      )
      (1): SimpleResidualUnit(
        (conv1): ConvPrelu(
          (conv): Conv2d(512, 512, kernel_size=(3, 3), stride=(1, 1), padding=(1, 1), bias=False)
          (prelu): PReLU(num_parameters=512)
        )
        (conv2): ConvPrelu(
          (conv): Conv2d(512, 512, kernel_size=(3, 3), stride=(1, 1), padding=(1, 1), bias=False)
          (prelu): PReLU(num_parameters=512)
        )
      )
    )
    (fc5): Linear(in_features=14336, out_features=256, bias=True)
  )
)
2021-06-24 14:52:02,609: Use DP
2021-06-24 14:53:25,641: time cost, forward:0.026386410298973623, backward:0.21974180202291468, data cost:0.4428557747542256 
2021-06-24 14:53:25,641: ============================================================
2021-06-24 14:53:25,642: Epoch 1/25 Batch 100/7662 eta: 1 day, 20:03:49.017033	Training Loss2 41.2299 (42.7724)	Training Loss3 21.8722 (24.7103)	Training Total_Loss 63.1022 (67.4827)	Training Prec@1_up 0.000 (0.002)	Training Prec@1_down 0.000 (0.000)	
…
