…
sk_augu_full'), ('batch_size', 512), ('datanum', 3923399), ('num_class', 86876), ('lmdb_workers', 4), ('num_workers', 4), ('start_epoch', 1), ('max_epoch', 26), ('lr', 0.1), ('base', 'epoch'), ('step_size', [10, 20, 30, 40, 50, 60]), ('momentum', 0.9), ('gama', 0.1), ('weight_decay', 0.0005), ('rank', -1), ('dist_url', 'env://'), ('world_size', -1), ('gpu', None), ('dist_backend', 'nccl'), ('distributed', False), ('master_port', 32345), ('multiprocessing_distributed', False), ('SEED', 1337), ('local_rank', -1)]
2021-08-06 00:34:36,801: SimpleResidual_split_abla(
  (conv1): ConvPrelu(
    (conv): Conv2d(3, 64, kernel_size=(3, 3), stride=(2, 2), padding=(1, 1), bias=False)
    (prelu): PReLU(num_parameters=64)
  )
  (layer1): Sequential(
    (0): SimpleResidualUnit(
      (conv1): ConvPrelu(
        (conv): Conv2d(64, 64, kernel_size=(3, 3), stride=(1, 1), padding=(1, 1), bias=False)
        (prelu): PReLU(num_parameters=64)
      )
      (conv2): ConvPrelu(
        (conv): Conv2d(64, 64, kernel_size=(3, 3), stride=(1, 1), padding=(1, 1), bias=False)
        (prelu): PReLU(num_parameters=64)
      )
    )
    (1): SimpleResidualUnit(
      (conv1): ConvPrelu(
        (conv): Conv2d(64, 64, kernel_size=(3, 3), stride=(1, 1), padding=(1, 1), bias=False)
        (prelu): PReLU(num_parameters=64)
      )
      (conv2): ConvPrelu(
        (conv): Conv2d(64, 64, kernel_size=(3, 3), stride=(1, 1), padding=(1, 1), bias=False)
        (prelu): PReLU(num_parameters=64)
      )
    )
  )
  (conv2): ConvPrelu(
    (conv): Conv2d(64, 128, kernel_size=(3, 3), stride=(2, 2), padding=(1, 1), bias=False)
    (prelu): PReLU(num_parameters=128)
  )
  (layer2): Sequential(
    (0): SimpleResidualUnit(
      (conv1): ConvPrelu(
        (conv): Conv2d(128, 128, kernel_size=(3, 3), stride=(1, 1), padding=(1, 1), bias=False)
        (prelu): PReLU(num_parameters=128)
      )
      (conv2): ConvPrelu(
        (conv): Conv2d(128, 128, kernel_size=(3, 3), stride=(1, 1), padding=(1, 1), bias=False)
        (prelu): PReLU(num_parameters=128)
      )
    )
    (1): SimpleResidualUnit(
      (conv1): ConvPrelu(
        (conv): Conv2d(128, 128, kernel_size=(3, 3), stride=(1, 1), padding=(1, 1), bias=False)
        (prelu): PReLU(num_parameters=128)
      )
      (conv2): ConvPrelu(
        (conv): Conv2d(128, 128, kernel_size=(3, 3), stride=(1, 1), padding=(1, 1), bias=False)
        (prelu): PReLU(num_parameters=128)
      )
    )
    (2): SimpleResidualUnit(
      (conv1): ConvPrelu(
        (conv): Conv2d(128, 128, kernel_size=(3, 3), stride=(1, 1), padding=(1, 1), bias=False)
        (prelu): PReLU(num_parameters=128)
      )
      (conv2): ConvPrelu(
        (conv): Conv2d(128, 128, kernel_size=(3, 3), stride=(1, 1), padding=(1, 1), bias=False)
        (prelu): PReLU(num_parameters=128)
      )
    )
    (3): SimpleResidualUnit(
      (conv1): ConvPrelu(
        (conv): Conv2d(128, 128, kernel_size=(3, 3), stride=(1, 1), padding=(1, 1), bias=False)
        (prelu): PReLU(num_parameters=128)
      )
      (conv2): ConvPrelu(
        (conv): Conv2d(128, 128, kernel_size=(3, 3), stride=(1, 1), padding=(1, 1), bias=False)
        (prelu): PReLU(num_parameters=128)
      )
    )
  )
  (conv3): ConvPrelu(
    (conv): Conv2d(128, 256, kernel_size=(3, 3), stride=(2, 2), padding=(1, 1), bias=False)
    (prelu): PReLU(num_parameters=256)
  )
  (layer3): Sequential(
    (0): SimpleResidualUnit(
      (conv1): ConvPrelu(
        (conv): Conv2d(256, 256, kernel_size=(3, 3), stride=(1, 1), padding=(1, 1), bias=False)
        (prelu): PReLU(num_parameters=256)
      )
      (conv2): ConvPrelu(
        (conv): Conv2d(256, 256, kernel_size=(3, 3), stride=(1, 1), padding=(1, 1), bias=False)
        (prelu): PReLU(num_parameters=256)
      )
    )
    (1): SimpleResidualUnit(
      (conv1): ConvPrelu(
        (conv): Conv2d(256, 256, kernel_size=(3, 3), stride=(1, 1), padding=(1, 1), bias=False)
        (prelu): PReLU(num_parameters=256)
      )
      (conv2): ConvPrelu(
        (conv): Conv2d(256, 256, kernel_size=(3, 3), stride=(1, 1), padding=(1, 1), bias=False)
        (prelu): PReLU(num_parameters=256)
      )
    )
    (2): SimpleResidualUnit(
      (conv1): ConvPrelu(
        (conv): Conv2d(256, 256, kernel_size=(3, 3), stride=(1, 1), padding=(1, 1), bias=False)
        (prelu): PReLU(num_parameters=256)
      )
      (conv2): ConvPrelu(
        (conv): Conv2d(256, 256, kernel_size=(3, 3), stride=(1, 1), padding=(1, 1), bias=False)
        (prelu): PReLU(num_parameters=256)
      )
    )
    (3): SimpleResidualUnit(
      (conv1): ConvPrelu(
        (conv): Conv2d(256, 256, kernel_size=(3, 3), stride=(1, 1), padding=(1, 1), bias=False)
        (prelu): PReLU(num_parameters=256)
      )
      (conv2): ConvPrelu(
        (conv): Conv2d(256, 256, kernel_size=(3, 3), stride=(1, 1), padding=(1, 1), bias=False)
        (prelu): PReLU(num_parameters=256)
      )
    )
    (4): SimpleResidualUnit(
      (conv1): ConvPrelu(
        (conv): Conv2d(256, 256, kernel_size=(3, 3), stride=(1, 1), padding=(1, 1), bias=False)
        (prelu): PReLU(num_parameters=256)
      )
      (conv2): ConvPrelu(
        (conv): Conv2d(256, 256, kernel_size=(3, 3), stride=(1, 1), padding=(1, 1), bias=False)
        (prelu): PReLU(num_parameters=256)
      )
    )
    (5): SimpleResidualUnit(
      (conv1): ConvPrelu(
        (conv): Conv2d(256, 256, kernel_size=(3, 3), stride=(1, 1), padding=(1, 1), bias=False)
        (prelu): PReLU(num_parameters=256)
      )
      (conv2): ConvPrelu(
        (conv): Conv2d(256, 256, kernel_size=(3, 3), stride=(1, 1), padding=(1, 1), bias=False)
        (prelu): PReLU(num_parameters=256)
      )
    )
    (6): SimpleResidualUnit(
      (conv1): ConvPrelu(
        (conv): Conv2d(256, 256, kernel_size=(3, 3), stride=(1, 1), padding=(1, 1), bias=False)
        (prelu): PReLU(num_parameters=256)
      )
      (conv2): ConvPrelu(
        (conv): Conv2d(256, 256, kernel_size=(3, 3), stride=(1, 1), padding=(1, 1), bias=False)
        (prelu): PReLU(num_parameters=256)
      )
    )
    (7): SimpleResidualUnit(
      (conv1): ConvPrelu(
        (conv): Conv2d(256, 256, kernel_size=(3, 3), stride=(1, 1), padding=(1, 1), bias=False)
        (prelu): PReLU(num_parameters=256)
      )
      (conv2): ConvPrelu(
        (conv): Conv2d(256, 256, kernel_size=(3, 3), stride=(1, 1), padding=(1, 1), bias=False)
        (prelu): PReLU(num_parameters=256)
      )
    )
  )
  (backbone): Sequential(
    (0): ConvPrelu(
      (conv): Conv2d(3, 64, kernel_size=(3, 3), stride=(2, 2), padding=(1, 1), bias=False)
      (prelu): PReLU(num_parameters=64)
    )
    (1): Sequential(
      (0): SimpleResidualUnit(
        (conv1): ConvPrelu(
          (conv): Conv2d(64, 64, kernel_size=(3, 3), stride=(1, 1), padding=(1, 1), bias=False)
          (prelu): PReLU(num_parameters=64)
        )
        (conv2): ConvPrelu(
          (conv): Conv2d(64, 64, kernel_size=(3, 3), stride=(1, 1), padding=(1, 1), bias=False)
          (prelu): PReLU(num_parameters=64)
        )
      )
      (1): SimpleResidualUnit(
        (conv1): ConvPrelu(
          (conv): Conv2d(64, 64, kernel_size=(3, 3), stride=(1, 1), padding=(1, 1), bias=False)
          (prelu): PReLU(num_parameters=64)
        )
        (conv2): ConvPrelu(
          (conv): Conv2d(64, 64, kernel_size=(3, 3), stride=(1, 1), padding=(1, 1), bias=False)
          (prelu): PReLU(num_parameters=64)
        )
      )
    )
    (2): ConvPrelu(
      (conv): Conv2d(64, 128, kernel_size=(3, 3), stride=(2, 2), padding=(1, 1), bias=False)
      (prelu): PReLU(num_parameters=128)
    )
    (3): Sequential(
      (0): SimpleResidualUnit(
        (conv1): ConvPrelu(
          (conv): Conv2d(128, 128, kernel_size=(3, 3), stride=(1, 1), padding=(1, 1), bias=False)
          (prelu): PReLU(num_parameters=128)
        )
        (conv2): ConvPrelu(
          (conv): Conv2d(128, 128, kernel_size=(3, 3), stride=(1, 1), padding=(1, 1), bias=False)
          (prelu): PReLU(num_parameters=128)
        )
      )
      (1): SimpleResidualUnit(
        (conv1): ConvPrelu(
          (conv): Conv2d(128, 128, kernel_size=(3, 3), stride=(1, 1), padding=(1, 1), bias=False)
          (prelu): PReLU(num_parameters=128)
        )
        (conv2): ConvPrelu(
          (conv): Conv2d(128, 128, kernel_size=(3, 3), stride=(1, 1), padding=(1, 1), bias=False)
          (prelu): PReLU(num_parameters=128)
        )
      )
      (2): SimpleResidualUnit(
        (conv1): ConvPrelu(
          (conv): Conv2d(128, 128, kernel_size=(3, 3), stride=(1, 1), padding=(1, 1), bias=False)
          (prelu): PReLU(num_parameters=128)
        )
        (conv2): ConvPrelu(
          (conv): Conv2d(128, 128, kernel_size=(3, 3), stride=(1, 1), padding=(1, 1), bias=False)
          (prelu): PReLU(num_parameters=128)
        )
      )
      (3): SimpleResidualUnit(
        (conv1): ConvPrelu(
          (conv): Conv2d(128, 128, kernel_size=(3, 3), stride=(1, 1), padding=(1, 1), bias=False)
          (prelu): PReLU(num_parameters=128)
        )
        (conv2): ConvPrelu(
          (conv): Conv2d(128, 128, kernel_size=(3, 3), stride=(1, 1), padding=(1, 1), bias=False)
          (prelu): PReLU(num_parameters=128)
        )
      )
    )
    (4): ConvPrelu(
      (conv): Conv2d(128, 256, kernel_size=(3, 3), stride=(2, 2), padding=(1, 1), bias=False)
      (prelu): PReLU(num_parameters=256)
    )
    (5): Sequential(
      (0): SimpleResidualUnit(
        (conv1): ConvPrelu(
          (conv): Conv2d(256, 256, kernel_size=(3, 3), stride=(1, 1), padding=(1, 1), bias=False)
          (prelu): PReLU(num_parameters=256)
        )
        (conv2): ConvPrelu(
          (conv): Conv2d(256, 256, kernel_size=(3, 3), stride=(1, 1), padding=(1, 1), bias=False)
          (prelu): PReLU(num_parameters=256)
        )
      )
      (1): SimpleResidualUnit(
        (conv1): ConvPrelu(
          (conv): Conv2d(256, 256, kernel_size=(3, 3), stride=(1, 1), padding=(1, 1), bias=False)
          (prelu): PReLU(num_parameters=256)
        )
        (conv2): ConvPrelu(
          (conv): Conv2d(256, 256, kernel_size=(3, 3), stride=(1, 1), padding=(1, 1), bias=False)
          (prelu): PReLU(num_parameters=256)
        )
      )
      (2): SimpleResidualUnit(
        (conv1): ConvPrelu(
          (conv): Conv2d(256, 256, kernel_size=(3, 3), stride=(1, 1), padding=(1, 1), bias=False)
          (prelu): PReLU(num_parameters=256)
        )
        (conv2): ConvPrelu(
          (conv): Conv2d(256, 256, kernel_size=(3, 3), stride=(1, 1), padding=(1, 1), bias=False)
          (prelu): PReLU(num_parameters=256)
        )
      )
      (3): SimpleResidualUnit(
        (conv1): ConvPrelu(
          (conv): Conv2d(256, 256, kernel_size=(3, 3), stride=(1, 1), padding=(1, 1), bias=False)
          (prelu): PReLU(num_parameters=256)
        )
        (conv2): ConvPrelu(
          (conv): Conv2d(256, 256, kernel_size=(3, 3), stride=(1, 1), padding=(1, 1), bias=False)
          (prelu): PReLU(num_parameters=256)
        )
      )
      (4): SimpleResidualUnit(
        (conv1): ConvPrelu(
          (conv): Conv2d(256, 256, kernel_size=(3, 3), stride=(1, 1), padding=(1, 1), bias=False)
          (prelu): PReLU(num_parameters=256)
        )
        (conv2): ConvPrelu(
          (conv): Conv2d(256, 256, kernel_size=(3, 3), stride=(1, 1), padding=(1, 1), bias=False)
          (prelu): PReLU(num_parameters=256)
        )
      )
      (5): SimpleResidualUnit(
        (conv1): ConvPrelu(
          (conv): Conv2d(256, 256, kernel_size=(3, 3), stride=(1, 1), padding=(1, 1), bias=False)
          (prelu): PReLU(num_parameters=256)
        )
        (conv2): ConvPrelu(
          (conv): Conv2d(256, 256, kernel_size=(3, 3), stride=(1, 1), padding=(1, 1), bias=False)
          (prelu): PReLU(num_parameters=256)
        )
      )
      (6): SimpleResidualUnit(
        (conv1): ConvPrelu(
          (conv): Conv2d(256, 256, kernel_size=(3, 3), stride=(1, 1), padding=(1, 1), bias=False)
          (prelu): PReLU(num_parameters=256)
        )
        (conv2): ConvPrelu(
          (conv): Conv2d(256, 256, kernel_size=(3, 3), stride=(1, 1), padding=(1, 1), bias=False)
          (prelu): PReLU(num_parameters=256)
        )
      )
      (7): SimpleResidualUnit(
        (conv1): ConvPrelu(
          (conv): Conv2d(256, 256, kernel_size=(3, 3), stride=(1, 1), padding=(1, 1), bias=False)
          (prelu): PReLU(num_parameters=256)
        )
        (conv2): ConvPrelu(
          (conv): Conv2d(256, 256, kernel_size=(3, 3), stride=(1, 1), padding=(1, 1), bias=False)
          (prelu): PReLU(num_parameters=256)
        )
      )
    )
  )
  (SSS_up): SpaceSliceStrategy_subject(
    (layer4): Sequential(
      (0): SimpleResidualUnit(
        (conv1): ConvPrelu(
          (conv): Conv2d(512, 512, kernel_size=(3, 3), stride=(1, 1), padding=(1, 1), bias=False)
          (prelu): PReLU(num_parameters=512)
        )
        (conv2): ConvPrelu(
          (conv): Conv2d(512, 512, kernel_size=(3, 3), stride=(1, 1), padding=(1, 1), bias=False)
          (prelu): PReLU(num_parameters=512)
        )
      )
      (1): SimpleResidualUnit(
        (conv1): ConvPrelu(
          (conv): Conv2d(512, 512, kernel_size=(3, 3), stride=(1, 1), padding=(1, 1), bias=False)
          (prelu): PReLU(num_parameters=512)
        )
        (conv2): ConvPrelu(
          (conv): Conv2d(512, 512, kernel_size=(3, 3), stride=(1, 1), padding=(1, 1), bias=False)
          (prelu): PReLU(num_parameters=512)
        )
      )
    )
    (conv4): ConvPrelu(
      (conv): Conv2d(256, 512, kernel_size=(3, 3), stride=(2, 2), padding=(1, 1), bias=False)
      (prelu): PReLU(num_parameters=512)
    )
    (subject): ModuleList(
      (0): Sequential(
        (0): SimpleResidualUnit(
          (conv1): ConvPrelu(
            (conv): Conv2d(512, 512, kernel_size=(3, 3), stride=(1, 1), padding=(1, 1), bias=False)
            (prelu): PReLU(num_parameters=512)
          )
          (conv2): ConvPrelu(
            (conv): Conv2d(512, 512, kernel_size=(3, 3), stride=(1, 1), padding=(1, 1), bias=False)
            (prelu): PReLU(num_parameters=512)
          )
        )
        (1): SimpleResidualUnit(
          (conv1): ConvPrelu(
            (conv): Conv2d(512, 512, kernel_size=(3, 3), stride=(1, 1), padding=(1, 1), bias=False)
            (prelu): PReLU(num_parameters=512)
          )
          (conv2): ConvPrelu(
            (conv): Conv2d(512, 512, kernel_size=(3, 3), stride=(1, 1), padding=(1, 1), bias=False)
            (prelu): PReLU(num_parameters=512)
          )
        )
      )
      (1): ConvPrelu(
        (conv): Conv2d(256, 512, kernel_size=(3, 3), stride=(2, 2), padding=(1, 1), bias=False)
        (prelu): PReLU(num_parameters=512)
      )
    )
  )
  (SSS_down): SpaceSliceStrategy_subject(
    (layer4): Sequential(
      (0): SimpleResidualUnit(
        (conv1): ConvPrelu(
          (conv): Conv2d(512, 512, kernel_size=(3, 3), stride=(1, 1), padding=(1, 1), bias=False)
          (prelu): PReLU(num_parameters=512)
        )
        (conv2): ConvPrelu(
          (conv): Conv2d(512, 512, kernel_size=(3, 3), stride=(1, 1), padding=(1, 1), bias=False)
          (prelu): PReLU(num_parameters=512)
        )
      )
      (1): SimpleResidualUnit(
        (conv1): ConvPrelu(
          (conv): Conv2d(512, 512, kernel_size=(3, 3), stride=(1, 1), padding=(1, 1), bias=False)
          (prelu): PReLU(num_parameters=512)
        )
        (conv2): ConvPrelu(
          (conv): Conv2d(512, 512, kernel_size=(3, 3), stride=(1, 1), padding=(1, 1), bias=False)
          (prelu): PReLU(num_parameters=512)
        )
      )
    )
    (conv4): ConvPrelu(
      (conv): Conv2d(256, 512, kernel_size=(3, 3), stride=(2, 2), padding=(1, 1), bias=False)
      (prelu): PReLU(num_parameters=512)
    )
    (subject): ModuleList(
      (0): Sequential(
        (0): SimpleResidualUnit(
          (conv1): ConvPrelu(
            (conv): Conv2d(512, 512, kernel_size=(3, 3), stride=(1, 1), padding=(1, 1), bias=False)
            (prelu): PReLU(num_parameters=512)
          )
          (conv2): ConvPrelu(
            (conv): Conv2d(512, 512, kernel_size=(3, 3), stride=(1, 1), padding=(1, 1), bias=False)
            (prelu): PReLU(num_parameters=512)
          )
        )
        (1): SimpleResidualUnit(
          (conv1): ConvPrelu(
            (conv): Conv2d(512, 512, kernel_size=(3, 3), stride=(1, 1), padding=(1, 1), bias=False)
            (prelu): PReLU(num_parameters=512)
          )
          (conv2): ConvPrelu(
            (conv): Conv2d(512, 512, kernel_size=(3, 3), stride=(1, 1), padding=(1, 1), bias=False)
            (prelu): PReLU(num_parameters=512)
          )
        )
      )
      (1): ConvPrelu(
        (conv): Conv2d(256, 512, kernel_size=(3, 3), stride=(2, 2), padding=(1, 1), bias=False)
        (prelu): PReLU(num_parameters=512)
      )
    )
  )
  (fc_up): Linear(in_features=10752, out_features=256, bias=True)
  (fc_down): Linear(in_features=14336, out_features=256, bias=True)
)
2021-08-06 00:34:51,365: Use DP
2021-08-06 00:36:14,760: time cost, forward:0.024501374273589165, backward:0.06112948812619604, data cost:0.5976373836247608 
2021-08-06 00:36:14,761: ============================================================
2021-08-06 00:36:14,761: Epoch 1/26 Batch 100/7662 eta: 1 day, 22:00:13.134880	Training Loss2 11.4915 (11.6066)	Training Loss3 21.8722 (23.1183)	Training Loss4 10.3808 (11.5959)	Training Loss5 0.7747 (nan)	Training Total_Loss 44.0156 (nan)	Training Prec@1_up 0.000 (0.000)	Training Prec@1_down 0.000 (0.000)	
…
